main/MIMOSA/pretrained_model/GNN.ckpt (torch, 246045 bytes, 24 tensors)

weight f4 [50, 100]
-1.791189 0.0685212 -3.452942 1.1421336 0.1608105 0.21067564 -4.665858 -0.021671671
0.15977071 0.08925275 0.006844732 2.3504353 0.002039238 -0.0025721334 0.03350362 -0.004583687
0.21153277 1.6618317 -4.7260385 2.8908167 -0.03157967 -1.376885 -4.063773 -0.0038137475
-0.11525551 2.2434177 0.00567614 -2.816324 -0.00549908 -2.1419363 -0.07343015 0.006037988
0.25569388 0.0075759646 2.1445587 2.2536418 0.001800116 0.008204067 -3.745091 2.4338505
-0.54055625 0.0039354414 2.377118 -2.1493952 -0.77706313 0.075026885 -4.5917406 0.011245849
-2.3975356 -4.401829 -0.28302366 2.3835042 -2.2447264 -5.3499293 0.008714658 -4.2256317
-2.2103631 0.0032243843 0.21360959 2.3583376 2.2318654 -2.5157804 -0.0036796522 2.327058
0.17843746 2.4422321 2.3580737 -3.2522757 0.037958305 -2.2803 0.10167936 0.26885834
0.008335307 -0.97961926 2.421239 0.008654183 0.18704197 0.015368549 -0.6199667 -3.1073885
2.2509987 -1.1778883 -2.2659469 -1.7747915 0.003389956 2.3422801 2.3828855 -3.6859348
-0.6542086 -4.775064 0.0021471088 0.74691063 0.0032423828 2.3853219 0.004227318 0.004163585
2.3134708 0.2769697 0.6337364 -0.0025666796 1.7494441 -0.037514452 3.4875214 -1.1916641
-0.15493414 -0.2176433 4.6252193 0.0011577476 -0.17640822 -0.106330134 -0.003028255 -2.3668962
0.0015384207 -0.02367799 -0.0038027312 -0.012994364 -0.22500822 -1.6166146 4.649225 -2.9385524
0.020191686 1.2510214 4.0209327 0.002890651 -0.07757353 -2.2476912 -0.044324502 2.7065444
0.015241653 2.016422 0.0171579 -0.0006404236 -0.27302313 -0.0046296013 -2.1562712 -2.2931187
-0.001082713 0.0016257379 3.7065516 -2.4388704 0.49649194 -0.0009410881 -2.3891034 2.056962
0.78784347 -0.07550097 4.315388 -0.004033701 2.2860227 4.3680735 0.25886878 -2.3995998
2.2074337 5.1232486 0.008892014 4.1657834 1.8912444 -0.00153961 -0.21090813 -2.368075
-2.2369149 2.3871634 0.008527572 -2.337861 -0.14347774 -2.4582238 -2.3674123 3.2039762
0.03689294 2.2474298 0.012731846 -0.2917915 -0.0020789355 0.8863666 -2.4343495 -0.0065286113
-0.22320051 -0.008174529 0.5491209 3.0822575 -2.2560794 1.1949598 2.0789177 1.7625008
0.014071172 -2.3527284 -2.391546 3.5058203 0.65302175 4.6098933 0.0038494638 -0.8318733
0.00072782155 -2.3951368 -0.002589243 -0.0035806652 -2.3215587 -0.31031233 -0.5637036 0.03771471
-2.0007744 -0.03416688 -3.5469685 1.214084 0.19655108 0.25949326 -4.7922096 0.03264726
0.21617055 0.20360863 0.01159019 2.4101517 0.011121225 -0.13690384 -0.07447752 -0.15476705
0.27045083 1.5911354 -4.933166 2.977455 -0.19151999 -1.2674794 -4.1794806 0.056159057
-0.18615153 2.291598 -0.092723094 -2.8767173 0.046506535 -2.1566021 -0.033247806 0.01977555
0.33069396 0.0134010855 2.2183454 2.3231747 0.020722037 0.0277434 -3.9642043 2.4636807
-0.5377329 0.012336215 2.4280858 -2.3186572 -0.7232011 0.084397644 -4.537489 0.012422578
-2.600937 -4.594278 -0.38274372 2.421025 -2.2009845 -5.379027 0.027533146 -4.3551607
00000000: ae45 e5bf d854 8c3d 00fd 5cc0 6f31 923f
00000010: 82ab 243e 5bbb 573e b54e 95c0 ca88 b1bc
00000020: ef9a 233e 25ca b63d c649 e03b 886d 1640
00000030: bda4 053b 3d91 28bb 183b 093d c132 96bb
00000040: 0c9c 583e e7b6 d43f b53b 97c0 2403 3940
00000050: af59 01bd c53d b0bf 6e0a 82c0 11f0 79bb
00000060: 150b ecbd 2894 0f40 eafe b93b a73e 34c0
00000070: a031 b4bb 7c15 09c0 8c62 96bd 50da c53b
00000080: 4fea 823e cc3f f83b 7340 0940 ab3b 1040
00000090: dff1 eb3a 5a6a 063c 92af 6fc0 35c4 1b40
000000a0: e561 0abf e0f4 803b b422 1840 b18f 09c0
000000b0: 9ced 46bf b2a7 993d 8aef 92c0 8240 383c
000000c0: 3971 19c0 c8db 8cc0 7ae8 90be 558b 1840
000000d0: 99a9 0fc0 9f32 abc0 edc7 0e3c 6038 87c0
000000e0: 9776 0dc0 3150 533b 79bc 5a3e 01ef 1640
000000f0: e2d6 0e40 8c02 21c0 5226 71bb 85ee 1440
00000100: 4fb8 363e 884d 1c40 aeea 1640 4925 50c0
00000110: 2b7a 1b3d 6ff0 11c0 453d d03d cda7 893e
00000120: d090 083c 54c8 7abf 94f5 1a40 46ca 0d3c
00000130: ee87 3f3e 5ecc 7b3c 23b6 1ebf 74df 46c0
00000140: 5d10 1040 0bc5 96bf 4605 11c0 5e2c e3bf
00000150: 062a 5e3b ebe7 1540 3281 1840 5be6 6bc0
00000160: 377a 27bf 53cd 98c0 82b6 0c3b 8935 3f3f
00000170: 287e 543b 1da9 1840 5085 8a3b af6e 883b
00000180: e80f 1440 f9ce 8d3e 8c3c 223f bd35 28bb
00000190: c9ed df3f c1a8 19bd 8d33 5f40 7388 98bf
000001a0: 0ea7 1ebe e3dd 5ebe cc01 9440 90bf 973a
000001b0: 5ba4 34be 9dc3 d9bd b075 46bb 3a7b 17c0
000001c0: d5a4 c93a 58f8 c1bc 3e37 79bb 50e6 54bc
000001d0: 8e68 66be 3aed cebf 74c6 9440 3e11 3cc0
000001e0: 0969 a53c 7821 a03f 7bab 8040 1471 3d3b
000001f0: dfde 9ebd 2cda 0fc0 9c8d 35bd 0638 2d40
00000200: 20b8 793c 0f0d 0140 b98e 8c3c 1ae2 27ba
00000210: b0c9 8bbe e9b3 97bb 5900 0ac0 75c2 12c0
00000220: d2e9 8dba b616 d53a 2438 6d40 7416 1cc0
00000230: 3134 fe3e 5ab3 76ba 12e7 18c0 44a5 0340
00000240: 1cb0 493f 41a0 9abd a917 8a40 232d 84bb
00000250: 324e 1240 42c7 8b40 738a 843e 0b93 19c0
00000260: 9846 0d40 a7f1 a340 cfaf 113c 194e 8540
00000270: 4c14 f23f bdcc c9ba 4df8 57be 8a8e 17c0
00000280: 9d29 0fc0 49c7 1840 3bb7 0b3c 849f 15c0
00000290: d4eb 12be 8a53 1dc0 af83 17c0 f20d 4d40
000002a0: 0d1d 173d e4d5 0f40 3c99 503c b265 95be
000002b0: c03e 08bb ece8 623f 62cc 1bc0 f6ed d5bb
000002c0: ad8e 64be 76ee 05bc 3093 0c3f b543 4540
000002d0: 9b63 10c0 71f4 983f fd0c 0540 a099 e13f
000002e0: c68a 663c 1a93 16c0 170f 19c0 5c5f 6040
000002f0: 6f2c 273f 3f84 9340 4947 7c3b a6f5 54bf
00000300: 47cb 3e3a ec49 19c0 4ab0 29bb 98a9 6abb
00000310: 6b94 14c0 42e1 9ebe e14e 10bf bd7a 1a3d
00000320: b00c 00c0 92f2 0bbd 8801 63c0 1b67 9b3f
00000330: b044 493e 4ddc 843e c859 99c0 22b9 053d
00000340: d05b 5d3e c87e 503e c8e4 3d3c ed3f 1a40
00000350: cc35 363c 8530 0cbe ac87 98bd 417b 1ebe
00000360: 8878 8a3e 53aa cb3f 7fdc 9dc0 9f8e 3e40
00000370: d11d 44be c43c a2bf 4ebe 85c0 0a07 663d
00000380: 829e 3ebe 8ba9 1240 9be5 bdbd 231c 38c0
00000390: a37d 3e3d c505 0ac0 da2e 08bd 5600 a23c
000003a0: b850 a93e 3a90 5b3c 5ff9 0d40 e5ae 1440
000003b0: 43c1 a93c 2046 e33c 86b5 7dc0 f2ac 1d40
000003c0: dda8 09bf d61d 4a3c c265 1b40 e164 14c0
000003d0: b523 39bf acd8 ac3d 1c33 91c0 1288 4b3c
000003e0: c075 26c0 5304 93c0 fcf6 c3be 13f2 1a40
000003f0: eedc 0cc0 fd20 acc0 318d e13c 7a5d 8bc0

bias f4 [100]
2.771706 0.15909854 2.576563 -0.35974884 -0.560712 -0.6263028 4.3610005 -0.2344065
-0.45957223 -1.0159991 -0.042803183 0.50052595 -0.063714534 1.2055539 0.8647809 0.91609174
-0.6826613 0.88030404 4.832122 0.95637023 1.0045005 0.39418265 3.9097798 -0.2829609
0.7162985 0.45243162 0.9134206 1.8507352 -0.30979973 1.825926 -0.06600255 -0.037354663
-0.5120682 -0.040488392 0.16717897 0.86440384 -0.064649396 -0.20461641 4.330896 0.7195843
0.005295423 -0.0414486 0.59052 3.1026566 -0.23468807 -0.013929411 3.2787755 -0.04111177
3.0470085 4.5789194 1.0189747 0.58676463 0.79155385 4.4363494 -0.20745324 3.9580657
1.8953863 -0.041455466 -0.5851419 0.57884204 0.464271 3.045708 -0.22503677 0.5627118
0.04358505 0.6381442 0.58582366 3.7540753 -0.31612512 2.9465826 0.8002867 -1.5357645
-0.0564691 2.3798347 0.57867545 -0.15850753 -0.27947855 -0.50388896 0.34001246 2.9692342
0.45565498 0.6444755 1.33466 1.8268406 -0.29899484 0.4717517 0.57881606 3.4685462
0.24724984 3.0150774 -0.07009339 0.8306306 -0.04054764 0.5822434 -0.038374767 -0.2086155
0.57816064 -0.4613652 1.4999803 1.1223779
00000000: a263 3140 baea 223e 68e6 2440 0031 b8be
00000010: d28a 0fbf 6155 20bf 518d 8b40 4208 70be
00000020: 0d4d ebbe 420c 82bf 6452 2fbd 7822 003f
00000030: c47c 82bd 974f 9a3f 4862 5d3f fd84 6a3f
00000040: e4c2 2ebf 9b5b 613f bea0 9a40 aed4 743f
00000050: 7993 803f 4fd2 c93e d539 7a40 40e0 90be
00000060: 575f 373f 1ea5 e73e efd5 693f e4e4 ec3f
00000070: 129e 9ebe f1b7 e93f 582c 87bd 3401 19bd
00000080: e716 03bf 28d7 25bd f730 2b3e 9249 5d3f
00000090: e766 84bd f786 51be b396 8a40 ad36 383f
000000a0: 3a85 ad3b 02c6 29bd 522c 173f ed91 4640
000000b0: 1252 70be 2f38 64bc 75d7 5140 d164 28bd
000000c0: 3002 4340 8286 9240 c36d 823f 3536 163f
000000d0: 46a3 4a3f 93f6 8d40 9f6e 54be f350 7d40
000000e0: 059c f23f 35cd 29bd dccb 15bf fe2e 143f
000000f0: eeb4 ed3e e1ec 4240 0a70 66be e10d 103f
00000100: 3d86 323d 6b5d 233f 8af8 153f c542 7040
00000110: 27db a1be cf94 3c40 97df 4c3f ee93 c4bf
00000120: 254c 67bd 364f 1840 1324 143f cc4f 22be
00000130: d017 8fbe defe 00bf 1d16 ae3e ef07 3e40
00000140: 9c4b e93e 59fc 243f 24d6 aa3f ead5 e93f
00000150: da15 99be 7089 f13e 4a2d 143f a9fc 5d40
00000160: 102f 7d3e 07f7 4040 208d 8fbd 35a4 543f
00000170: 4815 26bd e70d 153f dc2e 1dbd 4d9f 55be
00000180: 5602 143f 0f38 ecbe 5bff bf3f 14aa 8f3f

weight f4 [30, 100]
-2.4019408 -2.2280138 -2.7738922 -3.4016836 -2.4615488 -0.14508384 -2.3266225 -5.109297
-2.1389568 -2.169049 -0.020870851 -2.1517313 -2.6117587 -0.064582735 -3.3484464 -2.263094
0.07461992 -2.480237 -3.2313416 0.011558317 -2.0671701 -2.1857276 -5.437875 -5.072966
-5.431625 -2.1567433 -2.4961288 -2.155377 -0.093483105 -1.6240873 -6.319367 -5.8562202
-5.6465387 -2.552746 -2.0546346 -2.2944996 -1.993046 -2.1511946 -3.0655468 -0.029707745
-2.1151893 -2.0009816 -0.03798653 -3.8659108 -2.7325957 -0.09160743 -2.2108414 -0.006190613
-2.9350088 -3.1429136 -2.1630487 -0.08553087 -5.7616634 -2.1631324 -2.1317673 -5.755288
-2.4147456 -2.1903775 0.094962515 -3.6770668 -4.70759 -3.5211835 -2.362911 -2.0638971
-3.1440272 -2.1260972 -2.1475544 -2.1570091 -5.1993 -5.310198 -5.6554856 -5.3028755
-2.121866 0.028842874 -2.1560268 -2.2783554 -2.1381638 -5.969907 -5.7115855 -0.5630116
-0.7335218 -2.311283 -2.7252593 -0.011455301 -2.0804226 -2.5232084 -0.031832315 -0.029217698
-1.9206789 -5.3560805 -0.028104909 0.014624401 -2.8443692 -2.1085942 -2.1780207 -1.1593605
-0.024808154 -0.2579678 -5.685315 -1.9888159 3.6310558 3.8180163 3.4884017 3.5195298
3.80345 -0.18394949 3.8235116 -5.0453343 3.685215 3.6325839 -0.17202692 3.624325
3.5871842 0.05793155 3.6702 3.6895251 0.06647458 3.6582909 -3.356399 -0.08310509
3.615905 3.777693 -5.243765 -3.4659202 -5.5475235 3.8149228 3.8367488 3.739462
0.03363415 -1.9802798 -4.625521 -5.2926035 -4.4304013 4.525739 3.7114694 3.8449593
3.67011 3.8002303 3.457681 -0.01624854 3.8255644 3.6445522 0.046462037 3.7034929
3.7413528 0.009236798 3.7532508 -0.066178694 2.4014642 3.5147488 3.5523882 0.02813621
-4.7877693 3.448881 3.8256392 -3.8543127 3.681528 3.7896643 0.0060928464 2.7851965
-4.440301 3.4914567 3.7606206 3.6985729 3.5516796 3.5418885 3.5344467 3.6896818
-5.1069036 -5.044172 -4.921814 -3.87841 3.815935 0.053479888 3.6675742 3.8234797
3.8184416 -3.8505626 -5.2133865 -0.67484224 -1.1500947 3.7930713 3.5614123 -0.22026254
3.6597297 3.656157 -0.05389801 0.039452963 -2.2161822 -5.079639 -0.041234896 -0.07510314
3.5521197 3.7209744 3.5419188 -1.6166054 0.09101849 -0.27671108 -4.404113 -0.49342883
-3.023244 -2.8409033 -3.1283698 -3.2612145 -3.0460665 -0.11376718 -2.9308863 -5.183794
-2.99364 -2.9969049 -0.13519758 -2.9135494 -3.1030898 -0.061902296 -3.3500738 -2.946523
0.019222066 -2.9213774 -3.5845196 0.075197764 -2.8153691 -3.0056283 -5.4495153 -4.929802
-5.5993423 -2.853694 -2.9468303 -2.9760802 -0.05848694 -1.7376971 -5.7759094 -5.651317
-5.125658 -3.268951 -2.9487152 -2.8902798 -2.8029974 -2.8520336 -3.2704377 -0.0595642
-2.986835 -2.9574604 0.09384335 -3.4465938 -2.984012 0.023702443 -2.8996556 0.031224959
-2.899357 -3.2000992 -2.9443154 -0.035291243 -5.5574822 -2.9972355 -2.8486106 -5.1823897
00000000: 66b9 19c0 c797 0ec0 7387 31c0 2fb5 59c0
00000010: 048a 1dc0 dc90 14be 62e7 14c0 5c7f a3c0
00000020: abe4 08c0 b3d1 0ac0 59f9 aabc f7b5 09c0
00000030: 0e27 27c0 f443 84bd f24c 56c0 88d6 10c0
00000040: 54d2 983d 34bc 1ec0 4dce 4ec0 185f 3d3c
00000050: 844c 04c0 f6e2 0bc0 1203 aec0 bd55 a2c0
00000060: dfcf adc0 1508 0ac0 93c0 1fc0 b2f1 09c0
00000070: 1274 bfbd 18e2 cfbf 4138 cac0 2866 bbc0
00000080: 72b0 b4c0 3160 23c0 227f 03c0 15d9 12c0
00000090: 221c ffbf 2cad 09c0 eb31 44c0 a85d f3bc
000000a0: 435f 07c0 1510 00c0 c497 1bbd 156b 77c0
000000b0: d9e2 2ec0 ad9c bbbd 6d7e 0dc0 a0da cabb
000000c0: 2fd7 3bc0 7f25 49c0 646f 0ac0 cf2a afbd
000000d0: 8c5f b8c0 c370 0ac0 e06e 08c0 522b b8c0
000000e0: 318b 1ac0 252f 0cc0 b57b c23d 1055 6bc0
000000f0: 94a4 96c0 125b 61c0 ef39 17c0 e416 04c0
00000100: be37 49c0 fa11 08c0 8871 09c0 700c 0ac0
00000110: aa60 a6c0 24ed a9c0 bdf9 b4c0 28b1 a9c0
00000120: a7cc 07c0 e447 ec3c 58fc 09c0 93d0 11c0
00000130: add7 08c0 7a09 bfc0 4fc5 b6c0 8721 10bf
00000140: 16c8 3bbf 10ec 13c0 a66a 2ec0 04af 3bbc
00000150: a525 05c0 3f7c 21c0 9a62 02bd f459 efbc
00000160: ced8 f5bf 0365 abc0 443c e6bc 2f9b 6f3c
00000170: 250a 36c0 35f3 06c0 b164 0bc0 ed65 94bf
00000180: 783a cbbc 5b14 84be 1aee b5c0 8591 febf
00000190: 3863 6840 615a 7440 f941 5f40 fa3f 6140
000001a0: ba6b 7340 415d 3cbe 6ab4 7440 6173 a1c0
000001b0: 90da 6b40 417c 6840 d327 30be f1f4 6740
000001c0: 6d94 6540 a249 6d3d 8fe4 6a40 2e21 6c40
000001d0: d323 883d 7021 6a40 3ecf 56c0 0033 aabd
000001e0: fd6a 6740 b9c5 7140 eccc a7c0 a3d1 5dc0
000001f0: 5085 b1c0 b227 7440 4b8d 7540 5853 6f40
00000200: f6c3 093d cf79 fdbf 4504 94c0 025d a9c0
00000210: d9c5 8dc0 dbd2 9040 b788 6d40 d013 7640
00000220: 15e3 6a40 f936 7340 a54a 5d40 a81b 85bc
00000230: 0cd6 7440 5840 6940 fa4e 3e3d 0706 6d40
00000240: 5372 6f40 f055 173c 4335 7040 b288 87bd
00000250: 97b1 1940 a5f1 6040 545a 6340 e97d e63c
00000260: 6835 99c0 77ba 5c40 46d7 7440 0fad 76c0
00000270: 289e 6b40 dc89 7240 80a6 c73b a940 3240
00000280: f216 8ec0 0774 5f40 02ae 7040 6bb5 6c40
00000290: b84e 6340 4dae 6240 6034 6240 bf23 6c40
000002a0: c16b a3c0 db69 a1c0 807f 9dc0 df37 78c0
000002b0: 4738 7440 ba0d 5b3d 89b9 6a40 e4b3 7440
000002c0: 5961 7440 9e6f 76c0 10d4 a6c0 76c2 2cbf
000002d0: 4e36 93bf aec1 7240 2eee 6340 818c 61be
000002e0: 0339 6a40 7afe 6940 29c4 5cbd 6e99 213d
000002f0: eed5 0dc0 678c a2c0 ece5 28bd adcf 99bd
00000300: ee55 6340 7224 6e40 ccae 6240 edec cebf
00000310: e767 ba3d 13ad 8dbe 7eee 8cc0 b4a2 fcbe
00000320: d47c 41c0 5cd1 35c0 3637 48c0 bdb7 50c0
00000330: c1f2 42c0 c4fe e8bd a493 3bc0 a4e1 a5c0
00000340: cc97 3fc0 4acd 3fc0 3c71 0abe 9877 3ac0
00000350: 0699 46c0 438d 7dbd 9c67 56c0 d593 3cc0
00000360: 9877 9d3c d9f7 3ac0 c568 65c0 4901 9a3d
00000370: 022f 34c0 375c 40c0 6e62 aec0 f0c0 9dc0
00000380: d02d b3c0 eca2 36c0 de98 3cc0 1978 3ec0
00000390: 0090 6fbd dc6c debf 40d4 b8c0 97d7 b4c0
000003a0: 6405 a4c0 7e36 51c0 c0b7 3cc0 58fa 38c0
000003b0: 4f64 33c0 b887 36c0 da4e 51c0 97f9 73bd
000003c0: 4e28 3fc0 0847 3dc0 f130 c03d fe94 5cc0
000003d0: 0dfa 3ec0 a02b c23c f593 39c0 7ccb ff3c
000003e0: 118f 39c0 6dce 4cc0 aa6f 3cc0 8d8d 10bd
000003f0: e5d6 b1c0 b5d2 3fc0 a34f 36c0 23d6 a5c0

bias f4 [30]
-0.21040061 -2.1824052 -2.3610897 -2.1364753 -1.4641154 -5.845467 -1.863273 -3.4266515
-4.522988 -7.497741 -3.8491335 -7.907275 -3.5790381 -4.7277064 -3.069006 -6.3770657
-4.4955277 -19.454588 -4.6271367 -17.750868 -8.4292555 -9.823541 -7.301065 -19.519747
-8.32666 -18.070292 -19.492609 -4.4489446 -10.204956 -19.328121
00000000: 4273 57be 87ac 0bc0 181c 17c0 03bc 08c0
00000010: 2268 bbbf 110e bbc0 bb7f eebf 424e 5bc0
00000020: 51bc 90c0 7fed efc0 3458 76c0 6608 fdc0
00000030: f60e 65c0 5f49 97c0 986a 44c0 ec10 ccc0
00000040: 5ddb 8fc0 ffa2 9bc1 8111 94c0 c701 8ec1
00000050: 3bde 06c1 392d 1dc1 53a2 e9c0 7128 9cc1
00000060: 003a 05c1 f58f 90c1 ddf0 9bc1 c15d 8ec0
00000070: 8047 23c1 fe9f 9ac1

weight f4 [50, 31]
-0.07619484 -0.32879668 2.3204582 3.1518922 -8.776251 -1.6582953 -3.5315108 2.0360374
0.99748284 0.58530515 2.4420211 3.9380527 1.303318 0.97983414 -1.1306881 0.20990661
2.281708 2.8290014 2.5291924 0.60813 0.42830423 0.32999474 3.019919 3.1326804
0.9822992 0.29430386 2.187816 1.1759901 0.43902665 -0.5798574 -0.32572293 0.23399922
0.17953981 -2.3288178 -3.0011363 8.587067 1.9300556 3.3918703 -2.1072102 -1.0352119
-0.55223304 -2.358902 -3.9813912 -1.4351416 -1.0769569 0.9872701 -0.33197525 -1.976137
-2.7980957 -2.3129964 -0.5842491 -0.65184283 -0.5507328 -3.1086006 -3.3901596 -0.64864266
-0.39144817 -2.338595 -1.1224594 -0.390959 0.3329506 0.29410952 -0.22708417 -0.12287022
2.2019107 2.9060001 -8.888642 -1.8808056 -3.3910284 2.189508 1.075602 0.7807169
2.6378937 3.8385348 1.5842217 1.0406754 -1.0092185 0.2172521 1.9798958 2.9547904
2.5502298 0.8852901 0.36445865 0.5092906 2.9027362 3.1234803 0.8164872 0.49645424
2.3062356 1.1829835 0.42366585 -0.416648 -0.28234506 -0.24280156 -0.1529135 2.116785
3.224383 -8.695459 -1.7686875 -3.2293394 2.2500265 0.9802207 0.54790074 2.447016
3.9781053 1.3053442 1.2246584 -0.9380621 0.48401663 2.0354676 2.7736619 2.3177395
0.6344303 0.39143056 0.47168216 3.091228 3.231678 0.7101542 0.3124643 2.039385
1.0589409 0.33655548 -0.5606522 -0.24846132 -0.34109768 -0.13628128 2.2069678 3.0988643
-8.594019 -1.7797425 -3.4292755 2.212722 0.9998094 0.64908177 2.343871 4.008398
1.5174477 1.1327399 -1.1537458 0.49827123 2.0500705 2.8446805 2.3991053 0.7891361
0.6950514 0.41757706 2.957573 3.1196158 0.9403883 0.51937896 2.03434 1.147554
0.24110246 -0.4309503 -0.34716588 -0.21752307 -0.19515663 2.2436662 2.9275634 -8.737569
-1.9343117 -3.2523315 2.2091823 0.9496382 0.8573199 2.5548985 3.808536 1.4841381
1.2094572 -1.0279875 0.31500778 2.1827672 2.7802126 2.4460814 0.835926 0.6749391
0.60503566 3.045838 3.3143253 0.92672575 0.32226107 2.0563478 1.0367441 0.29348192
-0.49884835 -0.20291215 -0.1311828 -0.2599223 2.2998853 3.1020513 -8.633431 -1.6979077
-3.231182 2.2071927 0.94307053 0.66426855 2.585938 3.957919 1.4712721 0.9645717
-0.8912497 0.45999292 2.1142676 3.0875437 2.319686 0.58277977 0.611726 0.48595664
3.018959 3.3337002 0.6564675 0.3671988 2.261396 1.0609651 0.55876034 -0.60832673
-0.309641 -0.2812468 -0.22341684 2.2239807 2.9509425 -8.596359 -1.8858974 -3.350073
1.9595236 0.873746 0.67671406 2.5168552 3.9729793 1.2923999 0.9806248 -0.8478548
0.38808483 2.0372436 3.0151355 2.345175 0.70330614 0.63540125 0.60791224 3.1288779
3.1785502 0.98949826 0.48208725 2.3287022 1.1355749 0.54536146 -0.44652638 -0.27310655
0.10115925 0.35491577 -2.1158912 -2.9681215 8.563647 1.8596839 3.360826 -2.1856039
00000000: 0a0c 9cbd 0a58 a8be 6382 1440 9ab8 4940
00000010: 866b 0cc1 0543 d4bf 4604 62c0 704e 0240
00000020: 095b 7f3f 8fd6 153f 134a 1c40 0e09 7c40
00000030: 20d3 a63f 69d6 7a3f 63ba 90bf c2f1 563e
00000040: 8107 1240 5c0e 3540 4ade 2140 68ae 1b3f
00000050: b14a db3e 12f5 a83e 5a46 4140 d67d 4840
00000060: f677 7b3f ffae 963e 2d05 0c40 d886 963f
00000070: 1ac8 e03e 8971 14bf 28c5 a6be 7e9d 6f3e
00000080: 49d9 373e 5a0b 15c0 9e12 40c0 a064 0941
00000090: 100c f73f 6714 5940 88dc 06c0 d381 84bf
000000a0: 255f 0dbf 40f8 16c0 1dcf 7ec0 b8b2 b7bf
000000b0: b9d9 89bf bcbd 7c3f a9f8 a9be 0ff2 fcbf
000000c0: 0014 33c0 2208 14c0 5991 15bf 2cdf 26bf
000000d0: d3fc 0cbf 50f3 46c0 60f8 58c0 720d 26bf
000000e0: e56b c8be 8aab 15c0 c0ac 8fbf c72b c8be
000000f0: 8078 aa3e 8695 963e c188 68be 62a3 fbbd
00000100: 1bec 0c40 e8fb 3940 e137 0ec1 3dbe f0bf
00000110: 9c06 59c0 e620 0c40 54ad 893f 10dd 473f
00000120: 40d3 2840 8eaa 7540 c7c7 ca3f da34 853f
00000130: 122e 81bf 5677 5e3e 3a6d fd3f 491b 3d40
00000140: f736 2340 5fa2 623f 539a ba3e de60 023f
00000150: 6ec6 3940 1ae7 4740 4e05 513f 402f fe3e
00000160: 5d99 1340 016c 973f bbea d83e e352 d5be
00000170: 888f 90be f9a0 78be 5b95 1cbe 6879 0740
00000180: 4b5c 4e40 9a20 0bc1 5a64 e2bf 7fad 4ec0
00000190: 6f00 1040 beef 7a3f 3943 0c3f e99b 1c40
000001a0: 4799 7e40 8515 a73f 9bc1 9c3f d624 70bf
000001b0: 07d1 f73e 1a45 0240 ad83 3140 d855 1440
000001c0: 066a 223f 9669 c83e 5380 f13e aed6 4540
000001d0: d0d3 4e40 aacc 353f 52fb 9f3e 4985 0240
000001e0: 608b 873f 0051 ac3e e786 0fbf a56c 7ebe
000001f0: 5ba4 aebe 528d 0bbe f63e 0d40 cb53 4640
00000200: 1a81 09c1 9ace e3bf 4079 5bc0 3d9d 0d40
00000210: 82f3 7f3f 392a 263f fc01 1640 cc44 8040
00000220: ba3b c23f 9ffd 903f f1ad 93bf 681d ff3e
00000230: 5b34 0340 3f0f 3640 f18a 1940 d304 4a3f
00000240: e3ee 313f a9cc d53e e048 3d40 c9a7 4740
00000250: 4abd 703f 05f6 043f a032 0240 0de3 923f
00000260: 90e3 763e 85a5 dcbe babf b1be 5ebe 5ebe
00000270: 24d7 47be 3a98 0f40 335d 3b40 15cd 0bc1
00000280: 8797 f7bf 3326 50c0 3e63 0d40 7d1b 733f
00000290: 5179 5b3f 7583 2340 0ebf 7340 3df8 bd3f
000002a0: 7ecf 9a3f 1895 83bf b348 a13e 75b2 0b40
000002b0: 01ef 3140 998c 1c40 3fff 553f cfc8 2c3f
000002c0: 9ee3 1a3f 03ef 4240 e81d 5440 e63d 6d3f
000002d0: 67ff a43e 349b 0340 08b4 843f 4343 963e
000002e0: 0d69 ffbe 34c8 4fbe c954 06be 8914 85be
000002f0: 5231 1340 0288 4640 8922 0ac1 0a55 d9bf
00000300: b0cb 4ec0 a542 0d40 126d 713f 810d 2a3f
00000310: 0280 2540 8b4e 7d40 a552 bc3f 2cee 763f
00000320: f128 64bf 3184 eb3e 2950 0740 519a 4540
00000330: bc75 1440 0e31 153f 139a 1c3f 4fcf f83e
00000340: a036 4140 585b 5540 410e 283f 7b01 bc3e
00000350: b6ba 1040 b4cd 873f eb0a 0f3f 4dbb 1bbf
00000360: 4489 9ebe 95ff 8fbe 62c7 64be b355 0e40
00000370: 3edc 3c40 b08a 09c1 1665 f1bf 9967 56c0
00000380: abd1 fa3f d1ad 5f3f 223d 2d3f 2814 2140
00000390: 4b45 7e40 5c6d a53f 3a0a 7b3f 030d 59bf
000003a0: 0eb3 c63e 3362 0240 fbf7 4040 5917 1640
000003b0: df0b 343f a8a9 223f 23a0 1b3f 893f 4840
000003c0: 5e6d 4b40 c24f 7d3f 24d4 f63e 7509 1540
000003d0: 855a 913f cf9c 0b3f 1b9f e4be 9fd4 8bbe
000003e0: 952c cf3d 85b7 b53e c36a 07c0 b4f5 3dc0
000003f0: b304 0941 1f0a ee3f c617 5740 efe0 0bc0

bias f4 [50]
0.840429 -0.8571775 0.7564065 0.9903059 0.9888838 0.9759819 0.78038675 0.8811097
-0.86852944 -1.0470095 -1.0315473 0.7975208 -1.0764859 -0.9027793 -0.80897725 -0.92139703
0.7886099 0.8862159 -0.8518868 0.85601753 0.810687 0.93420243 -0.8844837 -0.7964658
0.80569315 -0.890322 -0.97309935 -0.9068206 0.8226947 -0.80929893 -0.95525426 0.9858405
0.901712 0.7607305 0.80976117 -1.0098472 0.93287235 -0.9168943 0.9511409 0.9192163
-0.89581543 0.89685166 1.0242951 0.89652437 -0.98096764 -0.7837909 0.88866204 0.92127854
-0.77333295 -0.9909603
00000000: 5b26 573f fc6f 5bbf dba3 413f b084 7d3f
00000010: 7d27 7d3f f3d9 793f 6dc7 473f 6890 613f
00000020: f257 5ebf 6804 86bf be09 84bf 532a 4c3f
00000030: 4aca 89bf 8b1c 67bf 2219 4fbf ade0 6bbf
00000040: 57e2 493f 0cdf 623f 4115 5abf f723 5b3f
00000050: 2f89 4f3f e427 6f3f 866d 62bf 2fe5 4bbf
00000060: e841 4e3f 25ec 63bf 0a1d 79bf 6525 68bf
00000070: 1f9c 523f 372e 4fbf 8b8b 74bf 0b60 7c3f
00000080: 99d6 663f 3cbf 423f 824c 4f3f ac42 81bf
00000090: b9d0 6e3f 96b9 6abf f87d 733f c251 6b3f
000000a0: 2954 65bf 1298 653f 1a1c 833f 9f82 653f
000000b0: b220 7bbf 85a6 48bf 5b7f 633f e9d8 6b3f
000000c0: 26f9 45bf 93af 7dbf

weight f4 [100, 100]
-0.0018292775 -0.0012187232 -0.0002236832 0.0010398532 0.0018250565 -0.000930524 -0.0002366341 -0.0012142224
-0.002291918 -0.0005014245 -0.00060001103 0.0016354818 0.0005841661 -0.00075601845 0.0006714439 -0.0047775027
-0.00018937922 0.0018302051 -0.0019345084 -0.002588901 -0.002074636 0.005176095 0.0034956015 0.0014431535
-0.0020610273 -0.0017380236 0.0002817974 -0.0017620433 -0.003729667 0.00033742015 0.00200636 0.001631984
-0.0007902543 -0.0059197843 0.00062771654 -0.004948879 0.0009630099 0.0044695446 0.0015189626 0.0026356836
-0.002518806 5.526474e-06 -0.00037875504 0.0010525082 0.00074703404 0.002048731 0.0018580374 -0.003594763
-0.00086904457 -0.0010655072 -0.0010065011 -0.0019948967 0.00031292706 0.0027395575 0.0021230197 -0.0012663822
-0.0009980554 0.00022503088 -0.0036690198 0.0026707475 -0.00034050827 0.0030892217 -0.0018246301 0.004663761
0.0001615335 -0.002814772 -0.00319151 -2.768054e-05 -0.0015234855 -0.0036425858 -0.0007996675 -0.0013437134
-0.00059410045 -0.00041950276 0.0014779075 0.0006103525 -0.00043859502 -0.002654538 -0.00022599638 0.0014185923
-3.5296136e-05 0.0017910751 0.0019123288 0.0026171817 -0.001541471 0.0020999594 -0.0011965053 -4.2723208e-05
-0.00066512584 -8.4967985e-05 -0.0019108272 0.0011740742 -0.0005254824 -0.0011897865 -0.003196199 -0.0009360684
-2.231601e-06 -3.7618407e-05 -0.0015565283 0.00086009916 0.001255836 -0.00032640353 0.0015484873 -5.654145e-05
-0.000625836 0.0009802799 0.0017752775 -0.0023448537 -0.0012033312 0.0017762036 -0.0017143692 0.00026679228
-0.00094042835 -0.0011567717 0.0007646862 -0.0006566135 -0.00079220854 0.00082814856 -0.0020119748 -0.0029877212
0.00046789713 -0.00015556946 -0.0015552264 -0.004010018 1.9803865e-05 -0.0008848167 0.0009230074 0.0017131774
-0.0027055843 -0.00043902715 -0.0009907237 -6.012e-07 -0.00034717008 -0.0021938286 0.0034581246 -0.0020763832
0.00020764492 -0.0021313254 0.00021072796 0.00013706443 0.00079710985 -0.0045640836 -0.0020971438 -0.0010967525
-0.0025145707 0.0012682215 0.0015849741 -0.0009949193 -3.6459296e-05 0.00078911014 0.0005091641 0.0015910367
0.0017368488 0.0005874816 -0.0015579426 -0.0014069651 -0.0012209374 0.0011869632 -0.0025732166 0.0010613912
0.0014341061 0.0008103935 -0.0025160813 0.0033757652 0.001435729 -0.00039594216 0.00018861728 -0.0011135085
-0.0025172073 -0.0012212193 -0.0036669902 0.0009828049 -0.0038018802 0.00072350167 0.0031543905 -1.9058458e-05
-0.00234044 1.4729888e-05 -0.00035433652 -0.0014840972 -0.00023896733 0.0023782577 0.00027269204 -0.00070058927
0.0006561465 -0.0046960465 -0.0010435627 0.0017081979 -0.0031346886 -0.0013181617 0.00054256537 0.0016122063
-0.00080018584 -0.005445961 -0.002072919 -0.0020319058 0.001889315 0.0029859915 -0.0034909975 0.0005312555
0.0052728 0.0013049124 -0.00081326667 -0.0014858126 0.000501844 0.0003782543 -0.0017627374 -1.658321e-05
0.0008138921 -0.0017302308 -0.0006655903 0.00029797002 0.00031438138 -0.001037942 -0.0003737108 -0.003070347
-0.002551223 -1.3440295e-05 0.0006604786 0.0007843465 -0.00094719196 -0.0010194273 -0.0012698884 0.001647568
0.00091997563 0.0011555402 -0.0016914669 -0.0038185907 -0.00064619974 0.0011336218 -4.37382e-05 5.6832054e-05
-0.00045570068 0.0013425112 -0.002297123 0.0012691077 0.0011622732 0.001180036 -0.0005289599 -0.004546566
0.0012560542 0.0002847087 0.00025605524 0.0015760009 -0.0013858964 0.0031611684 0.0021783253 -0.0020919603
-0.0030990087 0.001147088 0.0017829958 5.4865122e-05 -0.002941955 0.00034435082 -0.0014734049 -0.0009803724
00000000: 5ec4 efba 91bd 9fba 808c 6ab9 af4b 883a
00000010: bc36 ef3a 69ee 73ba fc20 78b9 8b26 9fba
00000020: 0134 16bb 0772 03ba 0f4a 1dba aa5d d63a
00000030: b922 193a 8a2f 46ba d603 303a 998c 9cbb
00000040: 1994 46b9 7ee3 ef3a 558f fdba 8daa 29bb
00000050: 9ef6 07bb 3b9c a93b 7616 653b 3228 bd3a
00000060: 4d12 07bb 65ce e3ba 35be 9339 5df4 e6ba
00000070: 6e6d 74bb c4e7 b039 237d 033b 4ce8 d53a
00000080: 1129 4fba c0fa c1bb 588d 243a 352a a2bb
00000090: 8072 7c3a 4275 923b ed17 c73a 6fbb 2c3b
000000a0: 8d12 25bb 0d70 b936 a493 c6b9 51f4 893a
000000b0: 9bd4 433a 0144 063b 6489 f33a 1e96 6bbb
000000c0: 98d0 63ba 7da8 8bba 93ec 83ba d0bc 02bb
000000d0: 5c10 a439 268a 333b 5c22 0b3b bcfc a5ba
000000e0: 2fd1 82ba 44f6 6b39 f073 70bb b507 2f3b
000000f0: 3f86 b2b9 8a74 4a3b 6d28 efba 76d2 983b
00000100: 5261 2939 0a78 38bb a728 51bb 8233 e8b7
00000110: b1af c7ba 73b8 6ebb c7a0 51ba 8a1f b0ba
00000120: 68bd 1bba b5f0 dbb9 59b6 c13a 1000 203a
00000130: 3af3 e5b9 c2f7 2dbb 71f9 6cb9 0ff0 b93a
00000140: f00a 14b8 82c2 ea3a 1ba7 fa3a 0685 2b3b
00000150: 2f0b caba 799f 093b 0ed4 9cba b231 33b8
00000160: d75b 2eba d730 b2b8 b974 faba 65e3 993a
00000170: 87c0 09ba 9cf2 9bba 5277 51bb 7d62 75ba
00000180: 9dc2 15b6 75c8 1db8 6c04 ccba 4778 613a
00000190: dd9a a43a 2421 abb9 9df6 ca3a eb26 6db8
000001a0: 250f 24ba bc7c 803a 6eb0 e83a 1eac 19bb
000001b0: 18b9 9dba 81cf e83a afb4 e0ba 41e0 8b39
000001c0: 1487 76ba d19e 97ba 3975 483a 9620 2cba
000001d0: 37ac 4fba 1c18 593a 56db 03bb a5cd 43bb
000001e0: 1750 f539 5c20 23b9 bdd8 cbba 7866 83bb
000001f0: 7a20 a637 0bf3 67ba faf5 713a b28c e03a
00000200: 2c50 31bb 3a2d e6b9 2cdb 81ba 2662 21b5
00000210: 6104 b6b9 56c6 0fbb b4a1 623b ee13 08bb
00000220: 42bb 5939 b5ad 0bbb dbf6 5c39 f4b8 0f39
00000230: 23f5 503a 4f8e 95bb 3c70 09bb e8c0 8fba
00000240: 7fcb 24bb 743a a63a e8be cf3a f467 82ba
00000250: dfeb 18b8 49dc 4e3a 6d79 053a 558a d03a
00000260: faa6 e33a 3901 1a3a e133 ccba ea69 b8ba
00000270: dc07 a0ba e093 9b3a 69a3 28bb 611e 8b3a
00000280: 9ef8 bb3a 9670 543a d7e4 24bb f13b 5d3b
00000290: 122f bc3a 7596 cfb9 91c7 4539 25f3 91ba
000002a0: bbf7 24bb 5211 a0ba e351 70bb 76d1 803a
000002b0: f728 79bb 60a9 3d3a e4b9 4e3b badf 9fb7
000002c0: 1162 19bb 6320 7737 3ec6 b9b9 0a86 c2ba
000002d0: 4e93 7ab9 8bdc 1b3b 1bf8 8e39 c0a7 37ba
000002e0: 3f01 2c3a 4be1 99bb 27c8 88ba 9ce5 df3a
000002f0: 596f 4dbb 2bc6 acba f23a 0e3a ab50 d33a
00000300: 90c3 51ba 0874 b2bb cfd9 07bb b929 05bb
00000310: e4a2 f73a a0b0 433b 38c9 64bb f443 0b3a
00000320: 74c7 ac3b 9809 ab3a 6731 55ba 99bf c2ba
00000330: 2e8e 033a 6f50 c639 a70b e7ba 2c1c 8bb7
00000340: 605b 553a e9c8 e2ba 027b 2eba dc38 9c39
00000350: 8ed3 a439 8e0b 88ba 9dee c3b9 e037 49bb
00000360: 6b32 27bb a17d 61b7 f823 2d3a 9a9c 4d3a
00000370: fa4c 78ba 4e9e 85ba 6272 a6ba 35f3 d73a
00000380: 852a 713a 7f75 973a 36b4 ddba 5241 7abb
00000390: bb65 29ba 0996 943a 8973 37b8 f45e 6e38
000003a0: 1ceb eeb9 33f7 af3a 548b 16bb 3058 a63a
000003b0: 6b57 983a 70ab 9a3a e6a9 0aba 5cfb 94bb
000003c0: 2fa2 a43a f444 9539 273f 8639 d191 ce3a
000003d0: f7a6 b5ba 9b2b 4f3b 3cc2 0e3b 4519 09bb
000003e0: bd18 4bbb e359 963a 69b3 e93a fa1e 6638
000003f0: d1cd 40bb fc89 b439 441f c1ba d77f 80ba

bias f4 [100]
0.0 0.0 0.0 0.0 0.0 0.0 0.0 0.0
0.0 0.0 0.0 0.0 0.0 0.0 0.0 0.0
0.0 0.0 0.0 0.0 0.0 0.0 0.0 0.0
0.0 0.0 0.0 0.0 0.0 0.0 0.0 0.0
0.0 0.0 0.0 0.0 0.0 0.0 0.0 0.0
0.0 0.0 0.0 0.0 0.0 0.0 0.0 0.0
0.0 0.0 0.0 0.0 0.0 0.0 0.0 0.0
0.0 0.0 0.0 0.0 0.0 0.0 0.0 0.0
0.0 0.0 0.0 0.0 0.0 0.0 0.0 0.0
0.0 0.0 0.0 0.0 0.0 0.0 0.0 0.0
0.0 0.0 0.0 0.0 0.0 0.0 0.0 0.0
0.0 0.0 0.0 0.0 0.0 0.0 0.0 0.0
0.0 0.0 0.0 0.0
00000000: 0000 0000 0000 0000 0000 0000 0000 0000
00000010: 0000 0000 0000 0000 0000 0000 0000 0000
00000020: 0000 0000 0000 0000 0000 0000 0000 0000
00000030: 0000 0000 0000 0000 0000 0000 0000 0000
00000040: 0000 0000 0000 0000 0000 0000 0000 0000
00000050: 0000 0000 0000 0000 0000 0000 0000 0000
00000060: 0000 0000 0000 0000 0000 0000 0000 0000
00000070: 0000 0000 0000 0000 0000 0000 0000 0000
00000080: 0000 0000 0000 0000 0000 0000 0000 0000
00000090: 0000 0000 0000 0000 0000 0000 0000 0000
000000a0: 0000 0000 0000 0000 0000 0000 0000 0000
000000b0: 0000 0000 0000 0000 0000 0000 0000 0000
000000c0: 0000 0000 0000 0000 0000 0000 0000 0000
000000d0: 0000 0000 0000 0000 0000 0000 0000 0000
000000e0: 0000 0000 0000 0000 0000 0000 0000 0000
000000f0: 0000 0000 0000 0000 0000 0000 0000 0000
00000100: 0000 0000 0000 0000 0000 0000 0000 0000
00000110: 0000 0000 0000 0000 0000 0000 0000 0000
00000120: 0000 0000 0000 0000 0000 0000 0000 0000
00000130: 0000 0000 0000 0000 0000 0000 0000 0000
00000140: 0000 0000 0000 0000 0000 0000 0000 0000
00000150: 0000 0000 0000 0000 0000 0000 0000 0000
00000160: 0000 0000 0000 0000 0000 0000 0000 0000
00000170: 0000 0000 0000 0000 0000 0000 0000 0000
00000180: 0000 0000 0000 0000 0000 0000 0000 0000

weight f4 [100, 100]
-0.0016064016 -0.0031763716 -0.0024897892 -0.002939711 0.0036827512 -0.0010601591 0.0011731175 -0.0011306443
-0.003208413 0.00056170626 0.00037254032 0.0032616674 -0.0034776113 -0.0013498546 0.0010039883 -0.0013224595
-0.0012759356 -0.0020187027 -0.0016853136 3.3209673e-07 -0.00023593681 -0.0021198252 -0.0010990395 5.5458e-05
0.0007458802 -0.0043178773 -0.0009169024 -0.00065393513 0.0019495315 -0.00013578834 -0.000791944 -0.00020420001
0.0029003788 -0.0006840569 0.0010540335 -0.0008265437 0.0005237151 -6.0457518e-05 -0.0020098567 0.00029392706
0.0007383542 0.0020093236 -0.0021577151 0.00080691965 -0.0024283202 -0.0025556434 -0.0031435941 -0.0013543877
5.9368766e-05 -0.00040827997 -0.0014784428 0.00021221123 0.0012598999 0.0014838675 0.0015728215 8.1947255e-05
-0.0013331808 -0.0031713704 0.00017765822 -0.00089955254 0.00035675662 0.001825185 -0.0026201026 0.0004220235
-0.00087152026 0.0030951742 -0.003851758 0.00028715818 -0.00049268815 0.00025438736 -0.0034331472 0.00017589978
0.0003870785 -0.003327063 0.0012909208 -0.00042387363 0.002593104 0.00018433321 -0.0009242505 0.00053500733
-0.0046651177 -0.001186636 0.00037041877 -0.00092778966 0.004320973 -0.0012714823 -0.002024258 -0.00012889293
0.0011664397 0.0010006079 0.0008729072 -0.0037712932 0.00027243883 0.0014159272 0.0021022588 -0.0028942567
0.0018997985 0.0008952961 -0.0025331965 0.0038302683 0.00020904023 -0.00114057 -0.0018354509 -0.0014763881
-4.275967e-05 0.0012518715 -0.00040594576 0.000475898 0.00057274284 -0.00075248675 0.001059812 -0.0003204341
0.0019768302 0.0017422868 0.00028154315 -0.0038954376 0.0010001069 -0.0028326616 -0.0012662156 0.0012030415
-0.0013404356 -0.0049637877 0.00030548562 -0.0009033727 0.00019879112 -0.0038611004 -0.002161971 -0.00049095455
-0.0017000341 0.00095164805 0.0006670244 0.0019531937 2.6926476e-05 0.003176027 0.0024412998 -0.0009933248
-0.004358477 -0.00016710394 0.00055173534 -0.0005300171 -0.0010093235 -0.0016985382 -0.0015796318 -0.00027462502
-0.0025687795 1.2333721e-05 -0.0021207845 0.0006364634 -0.0023060725 -6.0418086e-05 0.0061592725 0.0006212373
-0.0012453501 -7.657946e-06 -0.003538762 -0.0020959121 -0.0022140502 0.0011113754 -0.0018188038 0.0013068153
-0.0022022598 0.000100595826 0.0011127886 0.0021856537 0.00041388473 0.00041234124 0.0060626734 -0.0009858335
0.0016799697 -0.0026030461 -6.152876e-05 -0.00024608537 0.0014315353 -0.0017228286 5.481397e-05 -0.0010093024
0.00036427996 0.00097269355 -0.0018416233 0.002740188 -0.0032766713 0.0028525158 -0.00016871723 0.0018169787
-7.830489e-05 0.0010167222 0.0012566725 0.00087814033 -0.0008156472 -0.0009130996 -0.001052505 -0.0047431597
0.0055949665 -0.0010308733 -0.0016767799 0.0023434337 -0.0013863906 -0.00078426773 -0.002737101 0.0012509985
-0.0005777673 -0.00034386822 0.0022360394 0.0028300108 -0.0008896041 0.00030007298 -0.0038756162 -0.0016773649
-0.00016629885 0.003469755 0.0004276818 0.001593331 0.0018327949 0.0012253405 0.0008801819 -0.0034991875
0.00030846335 0.0015893795 0.0012117397 -0.002626095 0.002093623 0.0011331373 0.00039166582 -0.005077303
0.0015616841 -0.00094273046 0.0010633573 -0.00101984 0.0014065403 -0.00014296334 0.0030533052 0.0023539711
-0.004252707 -0.002041211 -0.0024676353 0.00038975984 -0.003490514 -0.0010024086 -0.0014358182 0.0023632317
-0.0030985088 -0.0007896741 0.00021379476 0.0022313464 0.0011626793 -0.0005319903 -0.0008368497 0.002904415
-0.0010476065 0.0007041419 0.0011045786 -0.0031797246 0.004813779 0.0006324272 -0.0001198356 0.0017056278
00000000: e58d d2ba ac2a 50bb bb2b 23bb 2ba8 40bb
00000010: 505a 713b 09f5 8aba 4bc3 993a 2132 94ba
00000020: 3d44 52bb 783f 133a 8451 c339 b3c1 553b
00000030: a3e8 63bb 9bed b0ba 4298 833a 6156 adba
00000040: 4b3d a7ba 364c 04bb bee5 dcba 074b b234
00000050: ce65 77b9 c4ec 0abb a50d 90ba 939b 6838
00000060: 2c87 433a fb7c 8dbb 475c 70ba d86c 2bba
00000070: 6c87 ff3a 6862 0eb9 769a 4fba 861e 56b9
00000080: 4814 3e3b 4852 33ba 7f27 8a3a 69ac 58ba
00000090: ed49 093a c493 7db8 cdb7 03bb 391a 9a39
000000a0: 1d8e 413a dbae 033b 7468 0dbb 7687 533a
000000b0: 7424 1fbb 957c 27bb c204 4ebb b685 b1ba
000000c0: ba02 7938 690e d6b9 4fc8 c1ba 0585 5e39
000000d0: 3a23 a53a 557e c23a 2227 ce3a 19db ab38
000000e0: 20be aeba c4d6 4fbb c449 3a39 f3cf 6bba
000000f0: 100b bb39 0c3b ef3a 07b6 2bbb 0943 dd39
00000100: bc76 64ba 68d8 4a3b c76d 7cbb b88d 9639
00000110: be27 01ba 4b5f 8539 a7fe 60bb bd71 3839
00000120: ccf0 ca39 db0a 5abb 1d34 a93a 5b3b deb9
00000130: 11f1 293b 9249 4139 6749 72ba bc3f 0c3a
00000140: d8dd 98bb e688 9bba c434 c239 e936 73ba
00000150: f396 8d3b dea7 a6ba 6aa9 04bb 6f27 07b9
00000160: 39e3 983a d426 833a d0d3 643a cd27 77bb
00000170: 1fd6 8e39 a296 b93a 0dc6 093b 92ad 3dbb
00000180: a902 f93a 4eb2 6a3a fc03 26bb 3d05 7b3b
00000190: cf31 5b39 2e7f 95ba 8393 f0ba 5d83 c1ba
000001a0: d958 33b8 d615 a43a 1ed5 d4b9 f381 f939
000001b0: 1f24 163a 8842 45ba 64e9 8a3a f0ff a7b9
000001c0: b58d 013b 725d e43a 159c 9339 994a 7fbb
000001d0: 0516 833a 2da4 39bb 25f7 a5ba 60af 9d3a
000001e0: 8eb1 afba 45a7 a2bb 9629 a039 51d0 6cba
000001f0: 9672 5039 840a 7dbb dbaf 0dbb 67b3 00ba
00000200: aed3 deba 0578 793a 40db 2e3a 2701 003b
00000210: 2be0 e137 e424 503b 37fe 1f3b 7332 82ba
00000220: 8ed1 8ebb 9f38 2fb9 55a2 103a d8f0 0aba
00000230: 474b 84ba 7ca1 deba a60b cfba 8cfb 8fb9
00000240: f858 28bb eeec 4e37 dcfc 0abb 56d8 263a
00000250: 7a21 17bb 6d69 7db8 b9d3 c93b 88da 223a
00000260: 043b a3ba a17a 00b7 93ea 67bb 925b 09bb
00000270: 9919 11bb 92ab 913a ee64 eeba 7249 ab3a
00000280: ca53 10bb f9f6 d238 fdda 913a 2f3d 0f3b
00000290: abfe d839 812f d839 64a9 c63b 1537 81ba
000002a0: 6e32 dc3a de97 2abb 0009 81b8 0505 81b9
000002b0: 5ba2 bb3a 89d0 e1ba 0de8 6538 924a 84ba
000002c0: d4fc be39 5cfc 7e3a a062 f1ba ba94 333b
000002d0: 6cbd 56bb 46f1 3a3b b0e9 30b9 b027 ee3a
000002e0: 9e37 a4b8 8943 853a efb6 a43a 0033 663a
000002f0: 28d1 55ba 145d 6fba 35f4 89ba 826c 9bbb
00000300: fb55 b73b 5e1e 87ba 66c7 dbba 4b94 193b
00000310: 8db7 b5ba 5197 4dba ef60 33bb 8bf8 a33a
00000320: 4f75 17ba 3649 b4b9 848a 123b b477 393b
00000330: 5234 69ba 1d53 9d39 0dfe 7dbb 07db dbba
00000340: 8260 2eb9 d464 633b 7b3a e039 51d7 d03a
00000350: 643a f03a 9b9b a03a 02bc 663a a052 65bb
00000360: 40b9 a139 ba52 d03a 3dd3 9e3a 901a 2cbb
00000370: 2a35 093b c785 943a 7f58 cd39 815f a6bb
00000380: 6cb1 cc3a 9221 77ba 5a60 8b3a 27ac 85ba
00000390: a95b b83a 6ee8 15b9 f619 483b 1545 1a3b
000003a0: 4b5a 8bbb d6c5 05bb 0db8 21bb ae58 cc39
000003b0: 1bc1 64bb 4063 83ba 1032 bcba 73e0 1a3b
000003c0: 5a10 4bbb 2202 4fba 182e 6039 c83b 123b
000003d0: 0b65 983a 4475 0bba 0860 5bba ff57 3e3b
000003e0: d74f 89ba 2a96 383a 82c7 903a ed62 50bb
000003f0: e8bc 9d3b 79c9 253a 3f50 fbb8 5f8f df3a

bias f4 [100]
0.0 0.0 0.0 0.0 0.0 0.0 0.0 0.0
0.0 0.0 0.0 0.0 0.0 0.0 0.0 0.0
0.0 0.0 0.0 0.0 0.0 0.0 0.0 0.0
0.0 0.0 0.0 0.0 0.0 0.0 0.0 0.0
0.0 0.0 0.0 0.0 0.0 0.0 0.0 0.0
0.0 0.0 0.0 0.0 0.0 0.0 0.0 0.0
0.0 0.0 0.0 0.0 0.0 0.0 0.0 0.0
0.0 0.0 0.0 0.0 0.0 0.0 0.0 0.0
0.0 0.0 0.0 0.0 0.0 0.0 0.0 0.0
0.0 0.0 0.0 0.0 0.0 0.0 0.0 0.0
0.0 0.0 0.0 0.0 0.0 0.0 0.0 0.0
0.0 0.0 0.0 0.0 0.0 0.0 0.0 0.0
0.0 0.0 0.0 0.0
00000000: 0000 0000 0000 0000 0000 0000 0000 0000
00000010: 0000 0000 0000 0000 0000 0000 0000 0000
00000020: 0000 0000 0000 0000 0000 0000 0000 0000
00000030: 0000 0000 0000 0000 0000 0000 0000 0000
00000040: 0000 0000 0000 0000 0000 0000 0000 0000
00000050: 0000 0000 0000 0000 0000 0000 0000 0000
00000060: 0000 0000 0000 0000 0000 0000 0000 0000
00000070: 0000 0000 0000 0000 0000 0000 0000 0000
00000080: 0000 0000 0000 0000 0000 0000 0000 0000
00000090: 0000 0000 0000 0000 0000 0000 0000 0000
000000a0: 0000 0000 0000 0000 0000 0000 0000 0000
000000b0: 0000 0000 0000 0000 0000 0000 0000 0000
000000c0: 0000 0000 0000 0000 0000 0000 0000 0000
000000d0: 0000 0000 0000 0000 0000 0000 0000 0000
000000e0: 0000 0000 0000 0000 0000 0000 0000 0000
000000f0: 0000 0000 0000 0000 0000 0000 0000 0000
00000100: 0000 0000 0000 0000 0000 0000 0000 0000
00000110: 0000 0000 0000 0000 0000 0000 0000 0000
00000120: 0000 0000 0000 0000 0000 0000 0000 0000
00000130: 0000 0000 0000 0000 0000 0000 0000 0000
00000140: 0000 0000 0000 0000 0000 0000 0000 0000
00000150: 0000 0000 0000 0000 0000 0000 0000 0000
00000160: 0000 0000 0000 0000 0000 0000 0000 0000
00000170: 0000 0000 0000 0000 0000 0000 0000 0000
00000180: 0000 0000 0000 0000 0000 0000 0000 0000

weight f4 [100, 100]
0.0040567913 -0.0011859313 -0.00039210374 -0.0005134999 0.002568101 -0.0030653307 0.0013768822 0.00079378043
-0.0007660979 0.0004377828 0.0013003235 0.0040058563 0.0026727247 -0.0027006443 -0.00068526063 0.00035846425
-0.00063882343 0.0020120824 -0.00053910626 -0.004072402 -0.0016186059 -0.0009794715 -0.0002661445 0.0029587026
-0.00024214956 -0.0016853076 -0.0012264976 0.0012616349 0.002178748 -0.00078250404 0.0021016554 0.00015105032
-0.0013907718 0.002763202 -0.0013571074 0.00059585815 -0.0018300955 0.0007530189 -0.00042552117 -0.0017741555
0.001630005 0.0017322613 -0.0008579371 0.00033390365 -0.003542964 -0.00297745 -0.000969185 -0.0013363597
-0.0015679508 -0.004021599 -0.0012209022 0.0038133918 0.001979042 -0.00011690059 -0.0005784457 -0.0035857207
-0.0011535883 -0.0013566519 0.00027082796 0.0014683125 0.0003971328 0.0036323448 0.00043501143 0.00063409517
0.0010937864 0.001734743 0.0022199848 0.0011744129 0.0014108769 0.00015044685 -0.00089489017 -0.00070782023
0.0008364989 -0.00012844645 -0.00066097174 0.0023367782 -0.0020178093 0.0010174514 0.003387044 -0.003150652
0.0011636708 0.00031726476 0.0006483556 -0.0016550611 -0.0007302752 0.0001846434 0.002500136 0.0040605897
-0.0040116766 0.0016611274 -0.0021630032 -0.0025323082 -0.0002487807 0.0015199044 0.0018136832 -0.0019360706
-0.0025220832 0.0005591688 0.0012570318 -0.00017962504 -0.00050823775 0.0013380328 -0.0021480245 0.002990392
-0.0025200103 0.003928065 -0.0016813405 -0.00057494227 -0.0032515805 -0.0013049905 -0.0029631155 0.0022126765
-0.00025851766 -0.0023876044 -0.00023567112 -0.0031389927 0.00033326042 0.0010445637 0.0012437827 0.0007708858
-0.0021450846 0.0004987321 0.0026911753 0.001910396 0.00031318192 0.00066043163 -4.4407843e-05 -0.0009973155
-0.004619271 0.004237222 -0.0014669293 -0.00038358627 -0.0032776843 0.0027075398 0.0008256395 5.142677e-05
-0.0007627058 -0.0028830792 -0.002421156 0.0008529352 -0.0011351339 -8.394891e-05 0.0015081916 0.0012111369
-3.2313405e-05 -0.0031474845 0.0011318496 -0.00065097073 0.00460728 -0.00041145642 0.0006306117 -0.00070954574
1.7380116e-05 0.0013599114 -0.0017598792 -0.0011287958 0.00056671764 0.0032153078 -0.0015397968 0.001968019
0.001391968 0.0007860593 0.0018562987 -0.00067643414 0.00264416 -0.0014963858 -0.00069169974 -0.0015613147
-0.00132076 0.00046860572 0.0012187718 0.003354327 0.0006397443 -0.0028498094 0.00062570145 -0.0031440407
3.165725e-05 2.093857e-05 0.00033153742 0.00020870758 0.00073348166 0.0043218588 -0.0050778366 0.0002647367
0.0016600937 0.0016668264 1.8612569e-05 0.0011921405 -0.0035496885 -0.002235415 -0.0029171836 -0.0010097566
0.00084399607 -2.637259e-05 -0.005243543 -0.0040074172 3.904086e-05 -0.0009819219 0.001316798 0.001625176
-0.00310745 -0.001587595 0.0027900122 0.0023930818 0.00066115486 -0.0026665276 -0.00095627736 -0.0011892333
0.0023706146 -0.0006902786 0.0026685025 -0.00038611714 0.0010727029 4.8725087e-05 -0.0016870534 0.0021046957
-0.0006236799 0.0039396575 0.0004088953 -0.00062687456 0.0022050757 0.001135837 -0.0009411207 -0.00043729538
0.0011946379 0.00042928118 -0.0007411062 -6.288164e-05 0.0009233562 0.00017227286 0.0014535335 0.0014086331
0.00013310518 0.0008739892 -0.003500001 -0.000586948 0.0018941595 3.269377e-05 -0.002600476 8.5150285e-05
0.0001887758 -0.0011717718 0.0027938627 0.0037006799 0.00037527838 -0.0001984894 -0.00029178374 0.0003551185
-0.0030776833 5.356263e-05 0.00035332187 -0.0022368694 0.00016950205 0.0025397292 -0.0030477026 -0.0031669901
00000000: d5ee 843b 4071 9bba 4693 cdb9 659c 06ba
00000010: 964d 283b b7e3 48bb 8078 b43a b415 503a
00000020: f6d3 48ba 3686 e539 9e6f aa3a 8f43 833b
00000030: e128 2f3b 4bfd 30bb 10a3 33ba 42f0 bb39
00000040: b776 27ba 24dd 033b cf52 0dba c971 85bb
00000050: 6727 d4ba 9c61 80ba 4f89 8bb9 cbe6 413b
00000060: 87e9 7db9 8ae5 dcba 6ec2 a0ba 715d a53a
00000070: 53c9 0e3b f520 4dba edbb 093b 4363 1e39
00000080: 8f4a b6ba d616 353b f8e0 b1ba 5d33 1c3a
00000090: d1df efba 3e66 453a 7c18 dfb9 c88a e8ba
000000a0: e4a5 d53a 0b0d e33a 2fe7 60ba ca0f af39
000000b0: 1331 68bb 5221 43bb e810 7eba ca28 afba
000000c0: b383 cdba 9ec7 83bb ae06 a0ba 19ea 793b
000000d0: d1b2 013b 8728 f5b8 d5a2 17ba 69fe 6abb
000000e0: 0034 97ba afd1 b1ba eafd 8d39 6474 c03a
000000f0: 4336 d039 a20c 6e3b 3f12 e439 6839 263a
00000100: 625d 8f3a 5160 e33a 2a7d 113b c2ee 993a
00000110: 2ced b83a 45c1 1d39 1097 6aba 038d 39ba
00000120: 7e48 5b3a 95af 06b9 1045 2dba a224 193b
00000130: 393d 04bb 015c 853a 2bf9 5d3b 2b7b 4ebb
00000140: 5086 983a 8e56 a639 68f6 293a a3ee d8ba
00000150: f06f 3fba d69c 4139 52d9 233b b20e 853b
00000160: 6274 83bb 30ba d93a 2cc1 0dbb 15f5 25bb
00000170: c86e 82b9 8737 c73a 1cb9 ed3a c0c3 fdba
00000180: 8949 25bb 2f95 123a fdc2 a43a bb59 3cb9
00000190: 423b 05ba ee60 af3a dfc5 0cbb 74fa 433b
000001a0: c226 25bb ffb6 803b 6d60 dcba b9b7 16ba
000001b0: 7818 55bb 370c abba d430 42bb 8d02 113b
000001c0: a789 87b9 5b79 1cbb 7c1e 77b9 8fb7 4dbb
000001d0: 75b9 ae39 bee9 883a 6c06 a33a 4515 4a3a
000001e0: 8c94 0cbb 58bd 023a 6e5e 303b 4166 fa3a
000001f0: 9132 a439 d120 2d3a 8f42 3ab8 5bb8 82ba
00000200: 415d 97bb 65d8 8a3b fb45 c0ba 141c c9b9
00000210: 6bce 56bb fb70 313b bb6f 583a 13b3 5738
00000220: 52f0 47ba 0bf2 3cbb 42ac 1ebb 8397 5f3a
00000230: c6c8 94ba ba0d b0b8 83ae c53a 03bf 9e3a
00000240: 4188 07b8 0746 4ebb 925a 943a e8a5 2aba
00000250: aaf8 963b bfb8 d7b9 a34f 253a cf00 3aba
00000260: 84cb 9137 0e3f b23a bfab e6ba 1af4 93ba
00000270: c78f 143a eab7 523b 02d3 c9ba e1f9 003b
00000280: b272 b63a 8c0f 4e3a 0c4f f33a ba52 31ba
00000290: a549 2d3b 6022 c4ba 2f53 35ba 07a5 ccba
000002a0: 5a1d adba 32af f539 32bf 9f3a 45d4 5b3b
000002b0: 83b4 273a dec3 3abb 1d06 243a 400c 4ebb
000002c0: b7c7 0438 3da5 af37 33d2 ad39 84d8 5a39
000002d0: 1f47 403a 619e 8d3b fb63 a6bb 5ccc 8a39
000002e0: 8097 d93a 6a79 da3a 3022 9c37 9941 9c3a
000002f0: e4a1 68bb 0a80 12bb 382e 3fbb cf59 84ba
00000300: 9e3f 5d3a b53a ddb7 07d2 abbb a750 83bb
00000310: cebf 2338 d5b3 80ba 6998 ac3a dc03 d53a
00000320: 5ca6 4bbb d916 d0ba a3d8 363b 40d5 1c3b
00000330: 5a51 2d3a e9c0 2ebb b0ae 7aba 0ce0 9bba
00000340: 505c 1b3b d0f3 34ba 0be2 2e3b c46f cab9
00000350: f099 8c3a 2a5e 4c38 1e20 ddba efee 093b
00000360: 737e 23ba 3e18 813b 0061 d639 d754 24ba
00000370: 0883 103b 5ee0 943a 8bb5 76ba cb44 e5b9
00000380: 6595 9c3a 2511 e139 cc46 42ba 53df 83b8
00000390: 630d 723a 25a4 3439 7e84 be3a e2a1 b83a
000003a0: 2692 0b39 6c1c 653a 4660 65bb 6add 19ba
000003b0: 7245 f83a ab20 0938 bf6c 2abb b692 b238
000003c0: 1ef2 4539 2396 99ba 3d19 373b 1b87 723b
000003d0: 03c1 c439 9821 50b9 8dfa 98b9 332f ba39
000003e0: f5b2 49bb 70a8 6038 0f3e b939 7198 12bb
000003f0: 5cbc 3139 9671 263b f7bb 47bb 478d 4fbb

bias f4 [100]
0.0 0.0 0.0 0.0 0.0 0.0 0.0 0.0
0.0 0.0 0.0 0.0 0.0 0.0 0.0 0.0
0.0 0.0 0.0 0.0 0.0 0.0 0.0 0.0
0.0 0.0 0.0 0.0 0.0 0.0 0.0 0.0
0.0 0.0 0.0 0.0 0.0 0.0 0.0 0.0
0.0 0.0 0.0 0.0 0.0 0.0 0.0 0.0
0.0 0.0 0.0 0.0 0.0 0.0 0.0 0.0
0.0 0.0 0.0 0.0 0.0 0.0 0.0 0.0
0.0 0.0 0.0 0.0 0.0 0.0 0.0 0.0
0.0 0.0 0.0 0.0 0.0 0.0 0.0 0.0
0.0 0.0 0.0 0.0 0.0 0.0 0.0 0.0
0.0 0.0 0.0 0.0 0.0 0.0 0.0 0.0
0.0 0.0 0.0 0.0
00000000: 0000 0000 0000 0000 0000 0000 0000 0000
00000010: 0000 0000 0000 0000 0000 0000 0000 0000
00000020: 0000 0000 0000 0000 0000 0000 0000 0000
00000030: 0000 0000 0000 0000 0000 0000 0000 0000
00000040: 0000 0000 0000 0000 0000 0000 0000 0000
00000050: 0000 0000 0000 0000 0000 0000 0000 0000
00000060: 0000 0000 0000 0000 0000 0000 0000 0000
00000070: 0000 0000 0000 0000 0000 0000 0000 0000
00000080: 0000 0000 0000 0000 0000 0000 0000 0000
00000090: 0000 0000 0000 0000 0000 0000 0000 0000
000000a0: 0000 0000 0000 0000 0000 0000 0000 0000
000000b0: 0000 0000 0000 0000 0000 0000 0000 0000
000000c0: 0000 0000 0000 0000 0000 0000 0000 0000
000000d0: 0000 0000 0000 0000 0000 0000 0000 0000
000000e0: 0000 0000 0000 0000 0000 0000 0000 0000
000000f0: 0000 0000 0000 0000 0000 0000 0000 0000
00000100: 0000 0000 0000 0000 0000 0000 0000 0000
00000110: 0000 0000 0000 0000 0000 0000 0000 0000
00000120: 0000 0000 0000 0000 0000 0000 0000 0000
00000130: 0000 0000 0000 0000 0000 0000 0000 0000
00000140: 0000 0000 0000 0000 0000 0000 0000 0000
00000150: 0000 0000 0000 0000 0000 0000 0000 0000
00000160: 0000 0000 0000 0000 0000 0000 0000 0000
00000170: 0000 0000 0000 0000 0000 0000 0000 0000
00000180: 0000 0000 0000 0000 0000 0000 0000 0000
