main/dst/pretrained_model/gnn_init.ckpt (torch, 241821 bytes, 21 tensors)

weight f4 [50, 100]
000000 51 eb 17 bb 12 34 40 3b 22 dc f0 3e 11 d9 23 3f
       -0.002318103 0.0029327911 0.47042948 0.6400309
000010 34 53 41 3a 32 6e 20 3f 62 37 1d 3f a3 65 23 3f
       0.0007374764 0.62668145 0.6141263 0.6382696
000020 83 a1 0c bb 54 17 22 3f dc 56 83 3a 77 a1 25 3f
       -0.0021458573 0.63316846 0.0010020393 0.646995
000030 e9 b1 2a ba a2 7b 28 39 86 0c 82 bb 76 a9 1e 3f
       -0.0006511496 0.00016067785 -0.003968778 0.61977327
000040 02 a6 25 3f 05 43 db ba 67 ec 71 3a e0 02 1c ba
       0.6470643 -0.0016728347 0.0009228647 -0.0005951356
000050 25 da 1e 3b 6d 94 22 3f 39 aa 23 3f ea 8d da bb
       0.002423891 0.6350773 0.63931614 -0.0066697495
000060 33 d3 63 bb 52 c5 1b ba 23 60 61 bb e8 b0 24 3f
       -0.0034763336 -0.0005942184 -0.0034389577 0.6433244
000070 6f 81 23 3f 75 9c da 3a 76 e2 96 3e 3d 12 0b bb
       0.63869375 0.0016678708 0.2946965 -0.0021220588
000080 0d 82 55 ba 0a c9 fe 3a 9f 3c b2 3b 13 4f 23 3f
       -0.0008144684 0.0019438576 0.0054393555 0.6379253
000090 a6 25 2d ba b8 88 d1 3e 5b 32 f2 39 90 ca 22 3f
       -0.00066050363 0.4092462 0.00046195355 0.63590336
0000a0 9e 56 21 3f 2a f0 52 bb 01 94 22 3f 55 b8 6a b7
       0.6302279 -0.0032186606 0.63507086 -1.3990405e-05
0000b0 51 fe f0 3a ad 96 c0 ba 02 13 a8 bb c9 48 51 3b
       0.0018386339 -0.0014693342 -0.005129219 0.0031934252
0000c0 04 4d 58 b5 c9 ae 1f 3f 63 cb 1a 3f 2a 41 35 3b
       -8.0578343e-07 0.62376076 0.60466594 0.002765725
0000d0 4e ab 0d 3b 90 2e 59 39 92 bf dd 39 a3 12 8d 3a
       0.0021616998 0.00020712079 0.00042295136 0.0010763
0000e0 96 29 18 3f 98 65 11 bb 48 23 88 ba d3 bf 1d 3f
       0.59438455 -0.0022185799 -0.0010386491 0.61620826
0000f0 69 cf 24 3f 74 7f 22 3f e1 23 72 38 39 7f 54 bb
       0.6437898 0.6347573 5.773071e-05 -0.0032424463
000100 d0 50 24 3f 51 8a b7 b9 4c f3 27 3a 35 fc bc 3a
       0.6418581 -0.00035007534 0.00064067985 0.0014418425
000110 46 38 00 3f 28 19 ea b9 cb ff fb ba 6b 94 fa 3e
       0.50085866 -0.000446507 -0.0019226013 0.4894136
000120 99 f1 19 3f ea 11 d4 3b e2 3f 65 3b e9 90 23 3f
       0.60134274 0.006471862 0.0034980704 0.6389299
000130 8d 07 61 bc 49 29 46 bb b2 ef 23 3f 75 f8 1d 3f
       -0.01373471 -0.003023701 0.6403762 0.6170724
000140 f8 33 1c 3f 23 3c 23 3f d0 15 22 3f 8f d9 24 3f
       0.610168 0.63763636 0.63314533 0.6439447
000150 32 ea 24 3f 9b 2d 22 3f 37 9d 60 3b d8 93 4b ba
       0.64419854 0.6335084 0.0034273395 -0.0007765866
000160 19 5b 55 3b 35 36 20 3f b5 8a 27 bb 3b 42 23 3f
       0.003255552 0.62582713 -0.0025564854 0.63772935
000170 f6 37 59 bb 50 fa 09 bb 8b c8 a8 ba 72 e1 25 3f
       -0.0033144928 -0.002105374 -0.0012877149 0.6479713
000180 24 f6 24 3f 3d 87 23 3f a9 76 e2 3b 4f d2 21 ba
       0.6443808 0.6387823 0.006911118 -0.0006173001
000190 02 de 19 bb 82 2f 7b bb 58 7e ef 3e ff 65 22 3f
       -0.0023478274 -0.0038327877 0.4677608 0.63436884
0001a0 5b 55 57 b8 c0 4f 20 3f a3 15 20 3f 65 01 23 3f
       -5.1339488e-05 0.6262169 0.62533015 0.63674
0001b0 22 51 eb 39 74 1a 22 3f 51 bf 97 bb ce cd 25 3f
       0.00044883142 0.63321614 -0.004630961 0.6476716
0001c0 91 ef e0 bb 94 bf a8 37 1f 68 12 bb 80 fc 1e 3f
       -0.006864496 2.0116371e-05 -0.0022339893 0.62104034
0001d0 d9 f6 24 3f 3a 4c 98 ba 8c 00 8a bb 0d e2 09 ba
       0.6443916 -0.0011619397 -0.004211491 -0.00052598194
0001e0 52 6b 8a ba c2 af 23 3f 59 e8 22 3f 90 42 30 bc
       -0.0010560548 0.6394006 0.63635784 -0.010758057
0001f0 4b 62 a0 bb e8 43 c7 39 0f d2 88 bb 50 9c 24 3f
       -0.00489453 0.00038006832 -0.0041754316 0.64301014
000200 83 44 23 3f 03 5f 88 bb 68 19 98 3e dd 48 76 bb
       0.63776416 -0.004161717 0.29706883 -0.003758005
000210 1e 6e 45 bb c0 25 64 bb 09 7f 5a 3b 86 15 23 3f
       -0.003012545 -0.003481254 0.003333988 0.6370472
000220 37 1e eb ba 1b d2 ce 3e c4 93 1a bb 3f 81 23 3f
       -0.0017938082 0.40394673 -0.002358661 0.6386909
000230 bc d2 21 3f 7c 1b 9a bb 78 1f 23 3f a2 05 96 bb
       0.6321218 -0.0047029834 0.6371989 -0.004578308
000240 ec af 3b 3b 47 e6 80 bb 99 55 1d bb 5b 8c ee ba
       0.0028638793 -0.003933701 -0.002400732 -0.0018199788
000250 cd 68 2b 3b 9b 16 1e 3f a9 db 1a 3f b8 6d 5e bb
       0.0026154995 0.61753243 0.60491425 -0.003393991
000260 cd c2 4d 3a 8a b1 fe b9 80 23 be 3a ba ff b2 3a
       0.0007849157 -0.00048578932 0.001450643 0.0013656535
000270 fe 77 1e 3f 0c 58 16 bb 95 15 f0 ba 0f aa 1e 3f
       0.61901844 -0.0022940664 -0.0018316979 0.6197824
000280 1b 15 24 3f 6f 61 23 3f e2 e7 68 3a ad 75 16 ba
       0.64094704 0.63820547 0.0008884651 -0.0005739581
000290 89 38 25 3f a3 d2 c3 ba fb 51 4d bb 7b 85 aa bb
       0.6453939 -0.0014940094 -0.0031329382 -0.0052039004
0002a0 17 b0 00 3f 1b 73 80 ba 7e 45 45 ba 26 e5 f9 3e
       0.5026869 -0.0009799929 -0.0007525309 0.4880764
0002b0 62 f6 15 3f 27 17 7a bb 69 5d b2 3a 29 a6 23 3f
       0.58579075 -0.0038160773 0.0013608161 0.63925415
0002c0 bc e8 0d bc 20 4b 16 bb 1c fa 22 3f 2b 79 1b 3f
       -0.008661445 -0.0022932962 0.63662887 0.6073176
0002d0 6a 7a 19 3f 16 fd 21 3f a0 7d 23 3f 40 c0 24 3f
       0.59952414 0.63276803 0.63863564 0.6435585
0002e0 51 37 26 3f e6 9b 22 3f a8 f1 05 bb 20 fb 0c 3b
       0.64928156 0.6351913 -0.0020438228 0.0021511987
0002f0 4d 42 a5 bb 6e 63 21 3f 39 39 a6 38 94 05 24 3f
       -0.005043304 0.6304234 7.9261554e-05 0.6407101
000300 27 99 c3 ba f8 d1 22 3a 3d cf 7b bb 20 0c 26 3f
       -0.0014922962 0.00062110974 -0.0038423084 0.6486225
000310 68 99 24 3f d1 c2 21 3f 68 fe 3a 3b e3 c8 06 bb
       0.6429658 0.6318789 0.0028532986 -0.0020566515
000320 cc 96 c6 bb 8a 85 b3 39 02 b6 ec be 27 51 22 bf
       -0.006060457 0.00034241035 -0.4623261 -0.6340508
000330 46 35 15 3b 08 a9 1e bf 43 f9 1d bf 81 13 21 bf
       0.002276735 -0.6197667 -0.6170847 -0.62920386
000340 24 24 06 b9 27 e5 1f bf 83 14 2f bb 88 7c 23 bf
       -0.00012792699 -0.62459034 -0.0026715107 -0.63861895
000350 1f e6 18 3c 90 5f a8 3b fa 43 4d 3b b0 56 1e bf
       0.009332209 0.005138345 0.0031321035 -0.61851025
000360 ab 54 24 bf 33 2e 3b 3b fd 84 17 3b 0b 1d 91 b8
       -0.64191693 0.0028561472 0.0023120039 -6.9195485e-05
000370 03 b4 17 ba f4 73 21 bf f9 b5 21 bf 6b b3 50 3c
       -0.00057870167 -0.63067555 -0.63168293 0.012738089
000380 b5 cb ad 39 e7 14 d4 3a 5e a6 96 3a 75 75 24 bf
       0.00033148905 0.0016180546 0.0011493673 -0.64241725
000390 77 6f 22 bf 1a 6a 78 3b 26 1c 92 be e9 ee 10 3b
       -0.6345133 0.0037905038 -0.285371 0.0022115058
0003a0 52 b3 f9 ba 4c da 27 b9 58 2b 22 bb 07 cc 21 bf
       -0.0019050634 -0.00016007683 -0.0024745073 -0.63201946
0003b0 44 27 a2 39 2c 41 c8 be 03 2a 13 3b d7 ec 20 bf
       0.00030928303 -0.39112222 0.002245546 -0.6286139
0003c0 5d 6f 20 bf e4 73 b4 ba 9c 47 21 bf e9 50 c9 ba
       -0.62669927 -0.0013767448 -0.6299989 -0.0015359196
0003d0 32 7f 52 3b 40 08 3c bb 79 69 cf 3a 22 41 28 3b
       0.0032119271 -0.002869144 0.001582428 0.0025673588
0003e0 a3 a6 a6 3a b3 57 1c bf 89 b8 18 bf a0 4a 9f ba
       0.0012714457 -0.6107132 -0.5965658 -0.0012152977
0003f0 2c 78 11 3b ee 0d 49 3b c7 e7 b1 3a 3c 0c b7 3a
       0.0022196872 0.0030678469 0.0013573103 0.0013965438

bias f4 [100]
000000 be 58 2a bb 1e 82 47 ba c2 4d e0 3e 56 37 15 3f
       -0.0025992836 -0.00076106365 0.43809325 0.5828756
000010 26 95 80 bb 1e 74 16 3f 00 1b 12 3f 5c 50 14 3f
       -0.00392403 0.5877093 0.5707245 0.5793512
000020 f3 8a ae ba 35 28 15 3f e3 bf e5 ba e8 6e 18 3f
       -0.0013316557 0.58264476 -0.00175285 0.5954423
000030 88 92 ac bb ff 2a fd ba e1 dd 04 bb 44 26 17 3f
       -0.0052664913 -0.0019315182 -0.0020273852 0.59042764
000040 a6 36 16 3f d6 c6 0d bb 62 cb 88 bb 59 f6 83 bb
       0.58677137 -0.0021633408 -0.0041746357 -0.0040271697
000050 20 79 05 bb 22 06 15 3f fb 6c 14 3f 19 d5 be bb
       -0.0020366386 0.5821248 0.5797879 -0.005823743
000060 59 f1 b8 bb 97 50 93 bb 30 e7 c8 bb 85 a5 16 3f
       -0.0056440053 -0.004495691 -0.0061310753 0.5884631
000070 f6 3e 15 3f cd 7e 33 bb d4 3a 88 3e 15 dc 82 ba
       0.58299196 -0.0027388812 0.26607382 -0.0009983802
000080 c3 5b 16 bb b6 83 b9 bb e3 5b 05 ba f0 52 16 3f
       -0.0022942878 -0.005661453 -0.00050872396 0.587203
000090 0c 05 e3 ba 56 bd bf 3e 88 2d d2 ba f1 5f 14 3f
       -0.001732023 0.3744914 -0.0016035298 0.57958895
0000a0 9e 76 12 3f 66 97 b2 bb 9d 54 15 3f a1 52 21 bb
       0.57212245 -0.005450177 0.58332235 -0.00246159
0000b0 98 93 3b bb 14 db 86 bb 9d 77 8a bb 1c 94 77 bb
       -0.0028621908 -0.0041154716 -0.004225685 -0.003777749
0000c0 04 cc ec ba 9b 1d 11 3f ce 6a 0c 3f 6c 5a 16 bb
       -0.0018066172 0.566858 0.5485047 -0.002294208
0000d0 7e 44 42 bb 35 fd 9d ba 2b 81 7a bb 1a e2 33 bb
       -0.0029642875 -0.0012053611 -0.0038223963 -0.0027448
0000e0 06 c5 17 3f 40 a6 c0 ba da a1 9b bb 6b 31 10 3f
       0.5928501 -0.0014697984 -0.004749519 0.56325406
0000f0 6b 24 16 3f c7 2b 15 3f 15 83 e9 ba d9 35 85 bb
       0.5864932 0.58269924 -0.0017815555 -0.004065257
000100 f0 db 16 3f 36 55 af ba 5c 6d 93 ba e0 28 33 bb
       0.5892935 -0.0013376835 -0.0011247802 -0.0027337596
000110 bb 45 e4 3e d3 4d 95 bb bf cf 44 bb 29 a2 df 3e
       0.4458445 -0.0045563965 -0.0030031053 0.43678406
000120 0b 6f 0c 3f 83 8d f6 bb 03 4b 74 bb 6e 36 16 3f
       0.5485694 -0.0075241937 -0.0037276156 0.58676803
000130 d1 90 62 bb b4 7d 2e bb 14 1e 15 3f a5 bc 0f 3f
       -0.003457118 -0.0026625218 0.5824902 0.56147224
000140 5a 54 0e 3f 17 be 14 3f d1 c6 14 3f ae 10 17 3f
       0.5559746 0.58102554 0.5811587 0.59009826
000150 07 45 17 3f d7 2f 13 3f 49 d7 1d bb 21 33 7b bb
       0.590897 0.5749487 -0.0024084619 -0.0038330036
000160 95 a4 0e bb 22 84 13 3f 25 4f 38 bb 41 dd 15 3f
       -0.002176558 0.57623494 -0.0028123346 0.5854073
000170 b7 d8 da bb 66 14 bc ba de 48 9d bb 8c 5d 17 3f
       -0.0066786665 -0.0014349341 -0.004799946 0.59127116
000180 7e 2a 17 3f fb bf 14 3f a3 86 60 bb 0c c3 ac bb
       0.5904921 0.5810544 -0.0034259937 -0.005272275

weight f4 [100, 1]
000000 83 5d 28 3f 6c 16 f1 3e b5 6f 29 3f 30 a0 28 3f
       0.6576769 0.4708742 0.66186076 0.65869427
000010 88 6c 26 3f 97 2b 27 3b 84 9e 28 3f e6 0d 62 3b
       0.65009356 0.002550816 0.65866876 0.0034493147
000020 9f fd e7 39 a4 d2 28 3f 03 b5 28 3f 38 dc 99 3d
       0.00044248716 0.6594641 0.659012 0.075127065
000030 79 3b 2a 3f e0 92 f1 3a ca 12 27 3f a5 1b 27 3f
       0.66497 0.0018430613 0.65263045 0.6527656
000040 5e f2 aa 3c 17 db 27 3f d9 5e fb 3a 38 7f 0f 3d
       0.020867523 0.6556868 0.0019178047 0.035033435
000050 66 7f 29 3f 15 32 29 3f 6d f1 27 3f d6 52 47 3e
       0.6621002 0.66092044 0.6560276 0.19465193
000060 89 6d 25 3f ba 6f 26 3f 5a 86 28 3f 21 40 27 3f
       0.6462026 0.6501423 0.65830004 0.6533223
000070 9c b3 b1 3a ba d3 2b 3f cf eb 1f 3f 19 52 29 3f
       0.0013557556 0.67119944 0.6246919 0.66140896
000080 09 22 51 3b b7 d3 fa 39 fb 23 53 39 b3 bc 1e 3f
       0.0031911156 0.00047841456 0.00020135932 0.6200668
000090 11 a0 3f 3d 81 e7 ad 3c d5 bd 27 3f 9b 69 28 bb
       0.04678351 0.021228554 0.65524036 -0.0025697711
0000a0 16 63 28 3f 4c b8 29 3f 49 46 b6 3c 42 a4 18 3b
       0.65776193 0.6629684 0.022250311 0.0023291265
0000b0 0b 9d 28 3f 9e 2c c1 3a 23 fe 29 3f e3 a2 28 3f
       0.6586463 0.0014738028 0.66403407 0.65873545
0000c0 6b b8 b0 ba 48 a2 27 3f 4a 8d 28 3f 0a 64 52 3a
       -0.0013482695 0.65481997 0.6584059 0.0008025771
0000d0 06 8f 28 3f db 2f 98 ba 0e 93 27 3f 95 e7 27 3f
       0.65843236 -0.0011610942 0.6545876 0.6558774
0000e0 19 6d cd 3e 02 cb 27 3f 65 45 77 3c f1 8c 9b 3c
       0.40122297 0.6554414 0.015092229 0.018988105
0000f0 dc 7c 23 3f 46 05 2a 3f ea 3e 29 3f c4 22 53 3c
       0.63862395 0.66414297 0.66111624 0.012886707
000100 63 92 28 3f 8f 49 28 3f bf 81 27 3f 11 e1 27 3f
       0.6584837 0.6573724 0.6543235 0.655778
000110 05 3d e1 ba 94 b7 27 3f 51 f5 5d 3a 3d bb 25 3f
       -0.0017184323 0.65514493 0.0008467036 0.6473883
000120 bc 8d 1b b6 be e4 95 ba 18 44 27 3f 84 75 28 3f
       -2.31793e-06 -0.0011435968 0.6533828 0.65804315
000130 b4 9c 0c bc 51 17 29 3f a8 28 28 3f 43 68 fc b9
       -0.008582283 0.66051203 0.65687037 -0.00048142867
000140 09 0d 4c ba 3b 26 28 3f 84 dc 27 3f d5 70 fe 3e
       -0.0007783925 0.65683335 0.65570855 0.4969546
000150 a2 31 28 3f 87 64 29 3f 96 04 9e ba 54 05 41 bb
       0.65700734 0.6616902 -0.001205581 -0.0029452639
000160 22 a2 35 bb bc dc 27 3f 0d 76 8d ba 5c 44 13 ba
       -0.0027715047 0.6557119 -0.0010792628 -0.00056177913
000170 23 70 28 3f 27 36 aa 3b a6 55 27 3f f4 5c 27 3f
       0.6579611 0.0051944437 0.65365064 0.6537621
000180 51 d9 a5 ba aa 7b 98 ba bc 98 28 3d c7 67 23 3f
       -0.0012653266 -0.0011633534 0.041161284 0.63830227

weight f4 [50, 82]
000000 dc 5c 72 3f 83 03 d3 3d 09 82 c6 3e 66 bf b3 3d
       0.9467294 0.10303404 0.38771084 0.08776741
000010 91 ec 2d 3f e7 37 df 3d 5d f0 2f 3e e9 b9 d1 3e
       0.67939097 0.108993344 0.17181535 0.4096215
000020 81 b0 a2 3e 1b d2 e4 3e 3d bf ca 3e 23 83 17 3f
       0.31775287 0.44691548 0.39599028 0.59184474
000030 b0 91 3b 3f 20 a5 0c 3f b8 0b fe 3e ea e2 1b 3f
       0.73269176 0.5493946 0.49618316 0.6089312
000040 86 9d 02 3f 8b c5 c7 bc 04 3d 6e 3d 73 44 68 3e
       0.5102161 -0.024386188 0.058163658 0.22682361
000050 97 a0 34 3e 0d 4c ec 3e 93 f6 c4 3e e1 ae 09 3f
       0.17639385 0.46151772 0.3846937 0.5378247
000060 f4 19 98 bc 79 62 11 be 3e 49 d0 3e 05 3d c0 3e
       -0.018567063 -0.1419772 0.4068088 0.37546554
000070 a7 0b 19 be 21 90 aa 3e a5 30 71 3e f1 45 25 3e
       -0.14945851 0.33313087 0.23553713 0.16139962
000080 17 f5 b5 3e 80 18 f8 bc 97 60 d5 3d 02 a4 87 3e
       0.3553855 -0.03028512 0.10418814 0.26492316
000090 40 52 da 3d a0 db 9f 3d c4 2a ab 3d fb 60 28 3e
       0.10660219 0.07805562 0.08357766 0.16443245
0000a0 7f f6 49 3e 6e f0 7c 3e 4f c6 8a be 08 27 ad 3e
       0.19722937 0.24701092 -0.27104422 0.3381884
0000b0 3c 85 80 be 76 f4 ab bd b8 95 98 3e c0 b6 e2 bd
       -0.2510165 -0.083962366 0.29801726 -0.11070013
0000c0 e5 21 33 be 82 64 88 bc 87 e7 50 be 62 cd 4a be
       -0.17493398 -0.016649488 -0.2040082 -0.1980491
0000d0 61 86 c3 3c 7b e1 91 3e 7d 08 be 3d 47 81 3a 3d
       0.023867788 0.2849234 0.09278963 0.045533445
0000e0 bb f8 94 3d d1 05 3f 3c 7b 4d dc bb 36 62 a7 3d
       0.07274004 0.011659102 -0.0067231036 0.08173029
0000f0 60 1c 9b 3e a5 d2 d6 3d 86 60 37 3e e5 67 0d be
       0.30295086 0.10489396 0.17907915 -0.13809164
000100 ea 62 81 be 61 8a 22 3e cf c7 c9 bc 13 13 17 be
       -0.25270778 0.158731 -0.024631409 -0.1475337
000110 4f 28 00 be 37 90 47 3c ba a7 bd bc 62 73 c0 bd
       -0.12515377 0.01218038 -0.023151267 -0.093970075
000120 c1 61 16 bc 6a 7d 88 bd c5 08 bd bc be 4d a6 bc
       -0.00917858 -0.06664546 -0.02307547 -0.020300742
000130 2d 72 2e be fa 1b bf 3d 17 ea a7 be af 09 a9 3d
       -0.17035742 0.09331508 -0.32795784 0.082538
000140 d5 b9 7d bd 3f e8 f5 bc 5d 55 6b 3f 96 13 90 3d
       -0.0619448 -0.03001797 0.9192713 0.07034986
000150 f4 32 b2 3e 31 47 8a 3e 68 a2 41 3f 9f 24 17 3e
       0.348045 0.2700744 0.7563844 0.14760064
000160 16 8a 47 3e 2d 0a c5 3e d3 e0 ae 3e 00 25 d4 3e
       0.1948627 0.38484326 0.34155902 0.4143448
000170 95 56 4f 3e 9d f1 f9 3e f5 85 42 3f 1a cd 19 3f
       0.20247872 0.4881715 0.7598565 0.60078585
000180 c2 42 ec 3e 1d 98 15 3f fb 60 17 3f bc ad 92 bb
       0.46144682 0.5843523 0.59132355 -0.004476277
000190 1d d7 93 3c 01 63 a8 3e 82 d1 54 3d cd 95 e7 3e
       0.01804691 0.32888034 0.051957615 0.45231476
0001a0 af 5d 0f 3f dd b4 f3 3e bd c4 61 bd db 0a 50 be
       0.56002325 0.47598925 -0.055119265 -0.20316641
0001b0 6f ac d8 3e b0 ca cc 3e 19 2f dc bd 8f e8 7c 3e
       0.42319056 0.39998388 -0.10751171 0.24698089
0001c0 d7 2d 0f 3e 48 3d 94 3e fd 86 ae 3e 9c ba 63 3d
       0.1398233 0.28953004 0.34087363 0.055597886
0001d0 2b 3a 4e 3e 27 aa 80 3e da ee aa 3d 7b 12 52 3e
       0.20139377 0.25129816 0.083463386 0.20514862
0001e0 ca 3e ed 3d 65 08 6e 3e 1f b0 70 3e 58 2d 08 3e
       0.11584242 0.2324539 0.23504685 0.13298547
0001f0 e4 92 b2 be b3 df 74 3e 2f c7 c6 bd ff 58 9a bd
       -0.34877694 0.2391346 -0.0970596 -0.07536506
000200 f9 ea c4 3e 2e 58 05 be 82 fb 1c be 06 e4 52 3d
       0.3846052 -0.13021919 -0.15330318 0.05148699
000210 7d 3d 9b be 9e a7 2f be 3c c5 c1 3c 25 03 63 3e
       -0.3032035 -0.17153785 0.023653619 0.22169168
000220 45 6a 13 3e 94 8c 00 be 59 0d 14 3e 21 12 49 3d
       0.14396007 -0.12553626 0.14458217 0.049089555
000230 d2 9c 53 3d b1 a1 c5 3d d5 08 80 3e 9a 34 89 3e
       0.051663227 0.09649981 0.25006738 0.26797944
000240 b1 36 19 3e c4 4a 17 bd 7a 13 65 be 25 a5 3d 3d
       0.1496227 -0.036936536 -0.22370711 0.046300072
000250 43 af b6 3d 71 3f 34 3c 36 5c 92 bd 3e 11 1f 3e
       0.08920147 0.011001454 -0.07146494 0.15533921
000260 6d c4 c6 3b e4 dd 10 be 4b c0 67 bd cb 39 ec 3c
       0.0060658962 -0.14147145 -0.05657987 0.028836152
000270 87 a4 c7 3d b2 ad 24 3e 93 16 89 bd 4f d0 c9 3c
       0.09748178 0.16081885 -0.06693759 0.024635462
000280 28 03 0b be 20 b7 83 3d 5e cf 39 be f4 1d af 3d
       -0.13575423 0.06431413 -0.1814551 0.08550635
000290 6c dd 51 bf a4 ce 56 be d1 c2 90 be 70 77 5d be
       -0.8197849 -0.20977265 -0.28273633 -0.21627593
0002a0 c7 54 39 bf fc 45 a3 bd 94 98 40 be 9e 8f ed be
       -0.72394985 -0.07972333 -0.18808204 -0.46398634
0002b0 12 13 8d be 1b c7 d2 be 03 f7 cd be ef b5 12 bf
       -0.27553612 -0.4116753 -0.40227517 -0.5730886
0002c0 b3 0a 37 bf c2 8c 09 bf 3c bb d0 be d0 dc 36 bf
       -0.715007 -0.53730404 -0.40767848 -0.71430683
0002d0 55 cb 0d bf f3 25 90 bd 3e 0f be 3d 37 60 33 be
       -0.55388385 -0.07038488 0.09280251 -0.17517172
0002e0 ad a7 a7 bd ab 3a b0 be 9a 17 d7 be 2a 1a ed be
       -0.081862785 -0.3441976 -0.42010194 -0.46309024
0002f0 2f 09 6e bd e4 77 aa 3e ca dd ce be 84 aa 83 be
       -0.058114227 0.33294594 -0.40403587 -0.2571603
000300 a8 1a 0c 3e b6 07 9c be 63 04 75 be 47 4f 3b be
       0.13682044 -0.30474633 -0.23927455 -0.1829196
000310 9c 5c 6b be 79 7e 92 bc a3 3d f6 bd 59 fe 9d be
       -0.22984546 -0.017882572 -0.12023475 -0.30858114
000320 a4 e8 70 bd 46 8f 70 be 3b b2 19 3b ce b2 f0 bd
       -0.058815613 -0.23492154 0.002345218 -0.11752854
000330 b7 92 4e be 00 6c 21 be 23 72 3d 3e f8 5f 83 be
       -0.20173155 -0.15763855 0.18500571 -0.25659156
000340 66 3e 8f 3e 7b 68 40 3d 47 1e d5 be 2a 13 97 3d
       0.27977294 0.04697464 -0.41624662 0.07376702
000350 49 e5 46 3e f6 2b 0e bc 56 4e 9b 3e 6d 50 7d 3e
       0.19423403 -0.008677473 0.30333203 0.24737711
000360 dd 4d f3 bd 8a fb 6f be ba cd 6f be 88 b7 cb 3d
       -0.118800856 -0.23435798 -0.23418322 0.09947115
000370 4d 26 14 be 94 fd f8 3d a6 9e be bd cd 5f d5 3c
       -0.14467736 0.12157741 -0.093076035 0.026046658
000380 0d 4a 8e be 2d aa bf bd 2e 26 4d be bf 79 26 3e
       -0.2779087 -0.0935863 -0.20034096 0.1625738
000390 51 93 31 3e ba 72 50 be 75 c0 56 bb 15 33 0f 3e
       0.17341353 -0.20356265 -0.0032768522 0.1398433
0003a0 d3 cf 4b 3e 16 f3 8f bd 6f 0c d4 bc 17 6f c0 3d
       0.19903497 -0.07028787 -0.025884835 0.09396189
0003b0 58 6d 7c 3c 6a 7c 6a 3d 4f 87 d8 bd c4 a2 53 bd
       0.015406929 0.057247557 -0.10572683 -0.051668897
0003c0 a7 eb 16 3d 3d 50 34 bc 23 14 95 3e 6c 2a 22 bd
       0.03684583 -0.011005458 0.29116926 -0.039591238
0003d0 48 9a 3b 3e 9e bd d2 3c 9f 39 6c bf 3a cc 34 be
       0.18320572 0.025725182 -0.9227542 -0.17656031
0003e0 4c ae b0 be 80 4b 22 be 64 a4 41 bf 5f 3e 2a be
       -0.34507978 -0.15849113 -0.75641465 -0.16625355
0003f0 90 08 9a be 6d 41 b4 be e8 90 91 be 9a f4 af be
       -0.30084658 -0.35206166 -0.28430867 -0.34366304

bias f4 [50]
000000 7e 49 0e 3f a7 a0 1f 3f 92 a5 22 bf d7 06 1b bf
       0.5558089 0.6235451 -0.6353389 -0.6055731
000010 c3 68 1a bf 59 59 13 bf c0 4a 2f 3f ce 7a 2b bf
       -0.60316104 -0.5755821 0.68473434 -0.6698426
000020 85 0d 29 bf 45 9b 0f 3f 9c 78 18 3f 9d b6 11 3f
       -0.66036254 0.560963 0.59559035 0.5691927
000030 26 92 26 bf 80 e0 23 bf b4 99 20 bf 08 5e 27 3f
       -0.65066755 -0.64014435 -0.6273453 0.65377855
000040 82 4c 25 3f b1 6d 31 bf df 54 2a 3f b5 04 24 bf
       0.64569867 -0.69308 0.66535753 -0.6406968
000050 cd 25 23 bf 4c b1 2c bf a4 90 27 3f d2 db 29 3f
       -0.63729554 -0.67458034 0.6545508 0.66351044
000060 6f ba 2b bf cb d8 1c 3f 4e d7 30 3f 1f 6a 25 3f
       -0.6708135 0.612683 0.6907853 0.6461505
000070 a2 f4 2c bf 90 d0 0d bf 1b 94 25 bf d9 2f 19 3f
       -0.6756078 -0.55396366 -0.64679116 0.59838635
000080 34 c3 2c bf bf 48 13 3f c0 ae 1f bf ad 34 1a 3f
       -0.67485356 0.57532877 -0.6237602 0.60236627
000090 7b ae 2f 3f 17 48 32 bf a3 e9 24 bf ea de 1d 3f
       0.6862561 -0.6964125 -0.64419 0.61668265
0000a0 ac 65 20 bf 58 a5 26 3f 6b 86 31 3f c9 92 29 3f
       -0.6265514 0.65096045 0.6934573 0.662396
0000b0 4b ed 26 bf 9e f5 25 bf c5 98 12 3f dc 19 2e 3f
       -0.6520583 -0.6482791 0.5726436 0.6800821
0000c0 d4 27 26 3f df 08 24 bf
       0.6490452 -0.64076036

weight f4 [100, 100]
000000 5e c4 ef ba 91 bd 9f ba 80 8c 6a b9 af 4b 88 3a
       -0.0018292775 -0.0012187232 -0.0002236832 0.0010398532
000010 bc 36 ef 3a 69 ee 73 ba fc 20 78 b9 8b 26 9f ba
       0.0018250565 -0.000930524 -0.0002366341 -0.0012142224
000020 01 34 16 bb 07 72 03 ba 0f 4a 1d ba aa 5d d6 3a
       -0.002291918 -0.0005014245 -0.00060001103 0.0016354818
000030 b9 22 19 3a 8a 2f 46 ba d6 03 30 3a 99 8c 9c bb
       0.0005841661 -0.00075601845 0.0006714439 -0.0047775027
000040 19 94 46 b9 7e e3 ef 3a 55 8f fd ba 8d aa 29 bb
       -0.00018937922 0.0018302051 -0.0019345084 -0.002588901
000050 9e f6 07 bb 3b 9c a9 3b 76 16 65 3b 32 28 bd 3a
       -0.002074636 0.005176095 0.0034956015 0.0014431535
000060 4d 12 07 bb 65 ce e3 ba 35 be 93 39 5d f4 e6 ba
       -0.0020610273 -0.0017380236 0.0002817974 -0.0017620433
000070 6e 6d 74 bb c4 e7 b0 39 23 7d 03 3b 4c e8 d5 3a
       -0.003729667 0.00033742015 0.00200636 0.001631984
000080 11 29 4f ba c0 fa c1 bb 58 8d 24 3a 35 2a a2 bb
       -0.0007902543 -0.0059197843 0.00062771654 -0.004948879
000090 80 72 7c 3a 42 75 92 3b ed 17 c7 3a 6f bb 2c 3b
       0.0009630099 0.0044695446 0.0015189626 0.0026356836
0000a0 8d 12 25 bb 0d 70 b9 36 a4 93 c6 b9 51 f4 89 3a
       -0.002518806 5.526474e-06 -0.00037875504 0.0010525082
0000b0 9b d4 43 3a 01 44 06 3b 64 89 f3 3a 1e 96 6b bb
       0.00074703404 0.002048731 0.0018580374 -0.003594763
0000c0 98 d0 63 ba 7d a8 8b ba 93 ec 83 ba d0 bc 02 bb
       -0.00086904457 -0.0010655072 -0.0010065011 -0.0019948967
0000d0 5c 10 a4 39 26 8a 33 3b 5c 22 0b 3b bc fc a5 ba
       0.00031292706 0.0027395575 0.0021230197 -0.0012663822
0000e0 2f d1 82 ba 44 f6 6b 39 f0 73 70 bb b5 07 2f 3b
       -0.0009980554 0.00022503088 -0.0036690198 0.0026707475
0000f0 3f 86 b2 b9 8a 74 4a 3b 6d 28 ef ba 76 d2 98 3b
       -0.00034050827 0.0030892217 -0.0018246301 0.004663761
000100 52 61 29 39 0a 78 38 bb a7 28 51 bb 82 33 e8 b7
       0.0001615335 -0.002814772 -0.00319151 -2.768054e-05
000110 b1 af c7 ba 73 b8 6e bb c7 a0 51 ba 8a 1f b0 ba
       -0.0015234855 -0.0036425858 -0.0007996675 -0.0013437134
000120 68 bd 1b ba b5 f0 db b9 59 b6 c1 3a 10 00 20 3a
       -0.00059410045 -0.00041950276 0.0014779075 0.0006103525
000130 3a f3 e5 b9 c2 f7 2d bb 71 f9 6c b9 0f f0 b9 3a
       -0.00043859502 -0.002654538 -0.00022599638 0.0014185923
000140 f0 0a 14 b8 82 c2 ea 3a 1b a7 fa 3a 06 85 2b 3b
       -3.5296136e-05 0.0017910751 0.0019123288 0.0026171817
000150 2f 0b ca ba 79 9f 09 3b 0e d4 9c ba b2 31 33 b8
       -0.001541471 0.0020999594 -0.0011965053 -4.2723208e-05
000160 d7 5b 2e ba d7 30 b2 b8 b9 74 fa ba 65 e3 99 3a
       -0.00066512584 -8.4967985e-05 -0.0019108272 0.0011740742
000170 87 c0 09 ba 9c f2 9b ba 52 77 51 bb 7d 62 75 ba
       -0.0005254824 -0.0011897865 -0.003196199 -0.0009360684
000180 9d c2 15 b6 75 c8 1d b8 6c 04 cc ba 47 78 61 3a
       -2.231601e-06 -3.7618407e-05 -0.0015565283 0.00086009916
000190 dd 9a a4 3a 24 21 ab b9 9d f6 ca 3a eb 26 6d b8
       0.001255836 -0.00032640353 0.0015484873 -5.654145e-05
0001a0 25 0f 24 ba bc 7c 80 3a 6e b0 e8 3a 1e ac 19 bb
       -0.000625836 0.0009802799 0.0017752775 -0.0023448537
0001b0 18 b9 9d ba 81 cf e8 3a af b4 e0 ba 41 e0 8b 39
       -0.0012033312 0.0017762036 -0.0017143692 0.00026679228
0001c0 14 87 76 ba d1 9e 97 ba 39 75 48 3a 96 20 2c ba
       -0.00094042835 -0.0011567717 0.0007646862 -0.0006566135
0001d0 37 ac 4f ba 1c 18 59 3a 56 db 03 bb a5 cd 43 bb
       -0.00079220854 0.00082814856 -0.0020119748 -0.0029877212
0001e0 17 50 f5 39 5c 20 23 b9 bd d8 cb ba 78 66 83 bb
       0.00046789713 -0.00015556946 -0.0015552264 -0.004010018
0001f0 7a 20 a6 37 0b f3 67 ba fa f5 71 3a b2 8c e0 3a
       1.9803865e-05 -0.0008848167 0.0009230074 0.0017131774
000200 2c 50 31 bb 3a 2d e6 b9 2c db 81 ba 26 62 21 b5
       -0.0027055843 -0.00043902715 -0.0009907237 -6.012e-07
000210 61 04 b6 b9 56 c6 0f bb b4 a1 62 3b ee 13 08 bb
       -0.00034717008 -0.0021938286 0.0034581246 -0.0020763832
000220 42 bb 59 39 b5 ad 0b bb db f6 5c 39 f4 b8 0f 39
       0.00020764492 -0.0021313254 0.00021072796 0.00013706443
000230 23 f5 50 3a 4f 8e 95 bb 3c 70 09 bb e8 c0 8f ba
       0.00079710985 -0.0045640836 -0.0020971438 -0.0010967525
000240 7f cb 24 bb 74 3a a6 3a e8 be cf 3a f4 67 82 ba
       -0.0025145707 0.0012682215 0.0015849741 -0.0009949193
000250 df eb 18 b8 49 dc 4e 3a 6d 79 05 3a 55 8a d0 3a
       -3.6459296e-05 0.00078911014 0.0005091641 0.0015910367
000260 fa a6 e3 3a 39 01 1a 3a e1 33 cc ba ea 69 b8 ba
       0.0017368488 0.0005874816 -0.0015579426 -0.0014069651
000270 dc 07 a0 ba e0 93 9b 3a 69 a3 28 bb 61 1e 8b 3a
       -0.0012209374 0.0011869632 -0.0025732166 0.0010613912
000280 9e f8 bb 3a 96 70 54 3a d7 e4 24 bb f1 3b 5d 3b
       0.0014341061 0.0008103935 -0.0025160813 0.0033757652
000290 12 2f bc 3a 75 96 cf b9 91 c7 45 39 25 f3 91 ba
       0.001435729 -0.00039594216 0.00018861728 -0.0011135085
0002a0 bb f7 24 bb 52 11 a0 ba e3 51 70 bb 76 d1 80 3a
       -0.0025172073 -0.0012212193 -0.0036669902 0.0009828049
0002b0 f7 28 79 bb 60 a9 3d 3a e4 b9 4e 3b ba df 9f b7
       -0.0038018802 0.00072350167 0.0031543905 -1.9058458e-05
0002c0 11 62 19 bb 63 20 77 37 3e c6 b9 b9 0a 86 c2 ba
       -0.00234044 1.4729888e-05 -0.00035433652 -0.0014840972
0002d0 4e 93 7a b9 8b dc 1b 3b 1b f8 8e 39 c0 a7 37 ba
       -0.00023896733 0.0023782577 0.00027269204 -0.00070058927
0002e0 3f 01 2c 3a 4b e1 99 bb 27 c8 88 ba 9c e5 df 3a
       0.0006561465 -0.0046960465 -0.0010435627 0.0017081979
0002f0 59 6f 4d bb 2b c6 ac ba f2 3a 0e 3a ab 50 d3 3a
       -0.0031346886 -0.0013181617 0.00054256537 0.0016122063
000300 90 c3 51 ba 08 74 b2 bb cf d9 07 bb b9 29 05 bb
       -0.00080018584 -0.005445961 -0.002072919 -0.0020319058
000310 e4 a2 f7 3a a0 b0 43 3b 38 c9 64 bb f4 43 0b 3a
       0.001889315 0.0029859915 -0.0034909975 0.0005312555
000320 74 c7 ac 3b 98 09 ab 3a 67 31 55 ba 99 bf c2 ba
       0.0052728 0.0013049124 -0.00081326667 -0.0014858126
000330 2e 8e 03 3a 6f 50 c6 39 a7 0b e7 ba 2c 1c 8b b7
       0.000501844 0.0003782543 -0.0017627374 -1.658321e-05
000340 60 5b 55 3a e9 c8 e2 ba 02 7b 2e ba dc 38 9c 39
       0.0008138921 -0.0017302308 -0.0006655903 0.00029797002
000350 8e d3 a4 39 8e 0b 88 ba 9d ee c3 b9 e0 37 49 bb
       0.00031438138 -0.001037942 -0.0003737108 -0.003070347
000360 6b 32 27 bb a1 7d 61 b7 f8 23 2d 3a 9a 9c 4d 3a
       -0.002551223 -1.3440295e-05 0.0006604786 0.0007843465
000370 fa 4c 78 ba 4e 9e 85 ba 62 72 a6 ba 35 f3 d7 3a
       -0.00094719196 -0.0010194273 -0.0012698884 0.001647568
000380 85 2a 71 3a 7f 75 97 3a 36 b4 dd ba 52 41 7a bb
       0.00091997563 0.0011555402 -0.0016914669 -0.0038185907
000390 bb 65 29 ba 09 96 94 3a 89 73 37 b8 f4 5e 6e 38
       -0.00064619974 0.0011336218 -4.37382e-05 5.6832054e-05
0003a0 1c eb ee b9 33 f7 af 3a 54 8b 16 bb 30 58 a6 3a
       -0.00045570068 0.0013425112 -0.002297123 0.0012691077
0003b0 6b 57 98 3a 70 ab 9a 3a e6 a9 0a ba 5c fb 94 bb
       0.0011622732 0.001180036 -0.0005289599 -0.004546566
0003c0 2f a2 a4 3a f4 44 95 39 27 3f 86 39 d1 91 ce 3a
       0.0012560542 0.0002847087 0.00025605524 0.0015760009
0003d0 f7 a6 b5 ba 9b 2b 4f 3b 3c c2 0e 3b 45 19 09 bb
       -0.0013858964 0.0031611684 0.0021783253 -0.0020919603
0003e0 bd 18 4b bb e3 59 96 3a 69 b3 e9 3a fa 1e 66 38
       -0.0030990087 0.001147088 0.0017829958 5.4865122e-05
0003f0 d1 cd 40 bb fc 89 b4 39 44 1f c1 ba d7 7f 80 ba
       -0.002941955 0.00034435082 -0.0014734049 -0.0009803724

bias f4 [100]
000000 00 00 00 00 00 00 00 00 00 00 00 00 00 00 00 00
       0.0 0.0 0.0 0.0
000010 00 00 00 00 00 00 00 00 00 00 00 00 00 00 00 00
       0.0 0.0 0.0 0.0
000020 00 00 00 00 00 00 00 00 00 00 00 00 00 00 00 00
       0.0 0.0 0.0 0.0
000030 00 00 00 00 00 00 00 00 00 00 00 00 00 00 00 00
       0.0 0.0 0.0 0.0
000040 00 00 00 00 00 00 00 00 00 00 00 00 00 00 00 00
       0.0 0.0 0.0 0.0
000050 00 00 00 00 00 00 00 00 00 00 00 00 00 00 00 00
       0.0 0.0 0.0 0.0
000060 00 00 00 00 00 00 00 00 00 00 00 00 00 00 00 00
       0.0 0.0 0.0 0.0
000070 00 00 00 00 00 00 00 00 00 00 00 00 00 00 00 00
       0.0 0.0 0.0 0.0
000080 00 00 00 00 00 00 00 00 00 00 00 00 00 00 00 00
       0.0 0.0 0.0 0.0
000090 00 00 00 00 00 00 00 00 00 00 00 00 00 00 00 00
       0.0 0.0 0.0 0.0
0000a0 00 00 00 00 00 00 00 00 00 00 00 00 00 00 00 00
       0.0 0.0 0.0 0.0
0000b0 00 00 00 00 00 00 00 00 00 00 00 00 00 00 00 00
       0.0 0.0 0.0 0.0
0000c0 00 00 00 00 00 00 00 00 00 00 00 00 00 00 00 00
       0.0 0.0 0.0 0.0
0000d0 00 00 00 00 00 00 00 00 00 00 00 00 00 00 00 00
       0.0 0.0 0.0 0.0
0000e0 00 00 00 00 00 00 00 00 00 00 00 00 00 00 00 00
       0.0 0.0 0.0 0.0
0000f0 00 00 00 00 00 00 00 00 00 00 00 00 00 00 00 00
       0.0 0.0 0.0 0.0
000100 00 00 00 00 00 00 00 00 00 00 00 00 00 00 00 00
       0.0 0.0 0.0 0.0
000110 00 00 00 00 00 00 00 00 00 00 00 00 00 00 00 00
       0.0 0.0 0.0 0.0
000120 00 00 00 00 00 00 00 00 00 00 00 00 00 00 00 00
       0.0 0.0 0.0 0.0
000130 00 00 00 00 00 00 00 00 00 00 00 00 00 00 00 00
       0.0 0.0 0.0 0.0
000140 00 00 00 00 00 00 00 00 00 00 00 00 00 00 00 00
       0.0 0.0 0.0 0.0
000150 00 00 00 00 00 00 00 00 00 00 00 00 00 00 00 00
       0.0 0.0 0.0 0.0
000160 00 00 00 00 00 00 00 00 00 00 00 00 00 00 00 00
       0.0 0.0 0.0 0.0
000170 00 00 00 00 00 00 00 00 00 00 00 00 00 00 00 00
       0.0 0.0 0.0 0.0
000180 00 00 00 00 00 00 00 00 00 00 00 00 00 00 00 00
       0.0 0.0 0.0 0.0

weight f4 [100, 100]
000000 e5 8d d2 ba ac 2a 50 bb bb 2b 23 bb 2b a8 40 bb
       -0.0016064016 -0.0031763716 -0.0024897892 -0.002939711
000010 50 5a 71 3b 09 f5 8a ba 4b c3 99 3a 21 32 94 ba
       0.0036827512 -0.0010601591 0.0011731175 -0.0011306443
000020 3d 44 52 bb 78 3f 13 3a 84 51 c3 39 b3 c1 55 3b
       -0.003208413 0.00056170626 0.00037254032 0.0032616674
000030 a3 e8 63 bb 9b ed b0 ba 42 98 83 3a 61 56 ad ba
       -0.0034776113 -0.0013498546 0.0010039883 -0.0013224595
000040 4b 3d a7 ba 36 4c 04 bb be e5 dc ba 07 4b b2 34
       -0.0012759356 -0.0020187027 -0.0016853136 3.3209673e-07
000050 ce 65 77 b9 c4 ec 0a bb a5 0d 90 ba 93 9b 68 38
       -0.00023593681 -0.0021198252 -0.0010990395 5.5458e-05
000060 2c 87 43 3a fb 7c 8d bb 47 5c 70 ba d8 6c 2b ba
       0.0007458802 -0.0043178773 -0.0009169024 -0.00065393513
000070 6c 87 ff 3a 68 62 0e b9 76 9a 4f ba 86 1e 56 b9
       0.0019495315 -0.00013578834 -0.000791944 -0.00020420001
000080 48 14 3e 3b 48 52 33 ba 7f 27 8a 3a 69 ac 58 ba
       0.0029003788 -0.0006840569 0.0010540335 -0.0008265437
000090 ed 49 09 3a c4 93 7d b8 cd b7 03 bb 39 1a 9a 39
       0.0005237151 -6.0457518e-05 -0.0020098567 0.00029392706
0000a0 1d 8e 41 3a db ae 03 3b 74 68 0d bb 76 87 53 3a
       0.0007383542 0.0020093236 -0.0021577151 0.00080691965
0000b0 74 24 1f bb 95 7c 27 bb c2 04 4e bb b6 85 b1 ba
       -0.0024283202 -0.0025556434 -0.0031435941 -0.0013543877
0000c0 ba 02 79 38 69 0e d6 b9 4f c8 c1 ba 05 85 5e 39
       5.9368766e-05 -0.00040827997 -0.0014784428 0.00021221123
0000d0 3a 23 a5 3a 55 7e c2 3a 22 27 ce 3a 19 db ab 38
       0.0012598999 0.0014838675 0.0015728215 8.1947255e-05
0000e0 20 be ae ba c4 d6 4f bb c4 49 3a 39 f3 cf 6b ba
       -0.0013331808 -0.0031713704 0.00017765822 -0.00089955254
0000f0 10 0b bb 39 0c 3b ef 3a 07 b6 2b bb 09 43 dd 39
       0.00035675662 0.001825185 -0.0026201026 0.0004220235
000100 bc 76 64 ba 68 d8 4a 3b c7 6d 7c bb b8 8d 96 39
       -0.00087152026 0.0030951742 -0.003851758 0.00028715818
000110 be 27 01 ba 4b 5f 85 39 a7 fe 60 bb bd 71 38 39
       -0.00049268815 0.00025438736 -0.0034331472 0.00017589978
000120 cc f0 ca 39 db 0a 5a bb 1d 34 a9 3a 5b 3b de b9
       0.0003870785 -0.003327063 0.0012909208 -0.00042387363
000130 11 f1 29 3b 92 49 41 39 67 49 72 ba bc 3f 0c 3a
       0.002593104 0.00018433321 -0.0009242505 0.00053500733
000140 d8 dd 98 bb e6 88 9b ba c4 34 c2 39 e9 36 73 ba
       -0.0046651177 -0.001186636 0.00037041877 -0.00092778966
000150 f3 96 8d 3b de a7 a6 ba 6a a9 04 bb 6f 27 07 b9
       0.004320973 -0.0012714823 -0.002024258 -0.00012889293
000160 39 e3 98 3a d4 26 83 3a d0 d3 64 3a cd 27 77 bb
       0.0011664397 0.0010006079 0.0008729072 -0.0037712932
000170 1f d6 8e 39 a2 96 b9 3a 0d c6 09 3b 92 ad 3d bb
       0.00027243883 0.0014159272 0.0021022588 -0.0028942567
000180 a9 02 f9 3a 4e b2 6a 3a fc 03 26 bb 3d 05 7b 3b
       0.0018997985 0.0008952961 -0.0025331965 0.0038302683
000190 cf 31 5b 39 2e 7f 95 ba 83 93 f0 ba 5d 83 c1 ba
       0.00020904023 -0.00114057 -0.0018354509 -0.0014763881
0001a0 d9 58 33 b8 d6 15 a4 3a 1e d5 d4 b9 f3 81 f9 39
       -4.275967e-05 0.0012518715 -0.00040594576 0.000475898
0001b0 1f 24 16 3a 88 42 45 ba 64 e9 8a 3a f0 ff a7 b9
       0.00057274284 -0.00075248675 0.001059812 -0.0003204341
0001c0 b5 8d 01 3b 72 5d e4 3a 15 9c 93 39 99 4a 7f bb
       0.0019768302 0.0017422868 0.00028154315 -0.0038954376
0001d0 05 16 83 3a 2d a4 39 bb 25 f7 a5 ba 60 af 9d 3a
       0.0010001069 -0.0028326616 -0.0012662156 0.0012030415
0001e0 8e b1 af ba 45 a7 a2 bb 96 29 a0 39 51 d0 6c ba
       -0.0013404356 -0.0049637877 0.00030548562 -0.0009033727
0001f0 96 72 50 39 84 0a 7d bb db af 0d bb 67 b3 00 ba
       0.00019879112 -0.0038611004 -0.002161971 -0.00049095455
000200 ae d3 de ba 05 78 79 3a 40 db 2e 3a 27 01 00 3b
       -0.0017000341 0.00095164805 0.0006670244 0.0019531937
000210 2b e0 e1 37 e4 24 50 3b 37 fe 1f 3b 73 32 82 ba
       2.6926476e-05 0.003176027 0.0024412998 -0.0009933248
000220 8e d1 8e bb 9f 38 2f b9 55 a2 10 3a d8 f0 0a ba
       -0.004358477 -0.00016710394 0.00055173534 -0.0005300171
000230 47 4b 84 ba 7c a1 de ba a6 0b cf ba 8c fb 8f b9
       -0.0010093235 -0.0016985382 -0.0015796318 -0.00027462502
000240 f8 58 28 bb ee ec 4e 37 dc fc 0a bb 56 d8 26 3a
       -0.0025687795 1.2333721e-05 -0.0021207845 0.0006364634
000250 7a 21 17 bb 6d 69 7d b8 b9 d3 c9 3b 88 da 22 3a
       -0.0023060725 -6.0418086e-05 0.0061592725 0.0006212373
000260 04 3b a3 ba a1 7a 00 b7 93 ea 67 bb 92 5b 09 bb
       -0.0012453501 -7.657946e-06 -0.003538762 -0.0020959121
000270 99 19 11 bb 92 ab 91 3a ee 64 ee ba 72 49 ab 3a
       -0.0022140502 0.0011113754 -0.0018188038 0.0013068153
000280 ca 53 10 bb f9 f6 d2 38 fd da 91 3a 2f 3d 0f 3b
       -0.0022022598 0.000100595826 0.0011127886 0.0021856537
000290 ab fe d8 39 81 2f d8 39 64 a9 c6 3b 15 37 81 ba
       0.00041388473 0.00041234124 0.0060626734 -0.0009858335
0002a0 6e 32 dc 3a de 97 2a bb 00 09 81 b8 05 05 81 b9
       0.0016799697 -0.0026030461 -6.152876e-05 -0.00024608537
0002b0 5b a2 bb 3a 89 d0 e1 ba 0d e8 65 38 92 4a 84 ba
       0.0014315353 -0.0017228286 5.481397e-05 -0.0010093024
0002c0 d4 fc be 39 5c fc 7e 3a a0 62 f1 ba ba 94 33 3b
       0.00036427996 0.00097269355 -0.0018416233 0.002740188
0002d0 6c bd 56 bb 46 f1 3a 3b b0 e9 30 b9 b0 27 ee 3a
       -0.0032766713 0.0028525158 -0.00016871723 0.0018169787
0002e0 9e 37 a4 b8 89 43 85 3a ef b6 a4 3a 00 33 66 3a
       -7.830489e-05 0.0010167222 0.0012566725 0.00087814033
0002f0 28 d1 55 ba 14 5d 6f ba 35 f4 89 ba 82 6c 9b bb
       -0.0008156472 -0.0009130996 -0.001052505 -0.0047431597
000300 fb 55 b7 3b 5e 1e 87 ba 66 c7 db ba 4b 94 19 3b
       0.0055949665 -0.0010308733 -0.0016767799 0.0023434337
000310 8d b7 b5 ba 51 97 4d ba ef 60 33 bb 8b f8 a3 3a
       -0.0013863906 -0.00078426773 -0.002737101 0.0012509985
000320 4f 75 17 ba 36 49 b4 b9 84 8a 12 3b b4 77 39 3b
       -0.0005777673 -0.00034386822 0.0022360394 0.0028300108
000330 52 34 69 ba 1d 53 9d 39 0d fe 7d bb 07 db db ba
       -0.0008896041 0.00030007298 -0.0038756162 -0.0016773649
000340 82 60 2e b9 d4 64 63 3b 7b 3a e0 39 51 d7 d0 3a
       -0.00016629885 0.003469755 0.0004276818 0.001593331
000350 64 3a f0 3a 9b 9b a0 3a 02 bc 66 3a a0 52 65 bb
       0.0018327949 0.0012253405 0.0008801819 -0.0034991875
000360 40 b9 a1 39 ba 52 d0 3a 3d d3 9e 3a 90 1a 2c bb
       0.00030846335 0.0015893795 0.0012117397 -0.002626095
000370 2a 35 09 3b c7 85 94 3a 7f 58 cd 39 81 5f a6 bb
       0.002093623 0.0011331373 0.00039166582 -0.005077303
000380 6c b1 cc 3a 92 21 77 ba 5a 60 8b 3a 27 ac 85 ba
       0.0015616841 -0.00094273046 0.0010633573 -0.00101984
000390 a9 5b b8 3a 6e e8 15 b9 f6 19 48 3b 15 45 1a 3b
       0.0014065403 -0.00014296334 0.0030533052 0.0023539711
0003a0 4b 5a 8b bb d6 c5 05 bb 0d b8 21 bb ae 58 cc 39
       -0.004252707 -0.002041211 -0.0024676353 0.00038975984
0003b0 1b c1 64 bb 40 63 83 ba 10 32 bc ba 73 e0 1a 3b
       -0.003490514 -0.0010024086 -0.0014358182 0.0023632317
0003c0 5a 10 4b bb 22 02 4f ba 18 2e 60 39 c8 3b 12 3b
       -0.0030985088 -0.0007896741 0.00021379476 0.0022313464
0003d0 0b 65 98 3a 44 75 0b ba 08 60 5b ba ff 57 3e 3b
       0.0011626793 -0.0005319903 -0.0008368497 0.002904415
0003e0 d7 4f 89 ba 2a 96 38 3a 82 c7 90 3a ed 62 50 bb
       -0.0010476065 0.0007041419 0.0011045786 -0.0031797246
0003f0 e8 bc 9d 3b 79 c9 25 3a 3f 50 fb b8 5f 8f df 3a
       0.004813779 0.0006324272 -0.0001198356 0.0017056278

bias f4 [100]
000000 00 00 00 00 00 00 00 00 00 00 00 00 00 00 00 00
       0.0 0.0 0.0 0.0
000010 00 00 00 00 00 00 00 00 00 00 00 00 00 00 00 00
       0.0 0.0 0.0 0.0
000020 00 00 00 00 00 00 00 00 00 00 00 00 00 00 00 00
       0.0 0.0 0.0 0.0
000030 00 00 00 00 00 00 00 00 00 00 00 00 00 00 00 00
       0.0 0.0 0.0 0.0
000040 00 00 00 00 00 00 00 00 00 00 00 00 00 00 00 00
       0.0 0.0 0.0 0.0
000050 00 00 00 00 00 00 00 00 00 00 00 00 00 00 00 00
       0.0 0.0 0.0 0.0
000060 00 00 00 00 00 00 00 00 00 00 00 00 00 00 00 00
       0.0 0.0 0.0 0.0
000070 00 00 00 00 00 00 00 00 00 00 00 00 00 00 00 00
       0.0 0.0 0.0 0.0
000080 00 00 00 00 00 00 00 00 00 00 00 00 00 00 00 00
       0.0 0.0 0.0 0.0
000090 00 00 00 00 00 00 00 00 00 00 00 00 00 00 00 00
       0.0 0.0 0.0 0.0
0000a0 00 00 00 00 00 00 00 00 00 00 00 00 00 00 00 00
       0.0 0.0 0.0 0.0
0000b0 00 00 00 00 00 00 00 00 00 00 00 00 00 00 00 00
       0.0 0.0 0.0 0.0
0000c0 00 00 00 00 00 00 00 00 00 00 00 00 00 00 00 00
       0.0 0.0 0.0 0.0
0000d0 00 00 00 00 00 00 00 00 00 00 00 00 00 00 00 00
       0.0 0.0 0.0 0.0
0000e0 00 00 00 00 00 00 00 00 00 00 00 00 00 00 00 00
       0.0 0.0 0.0 0.0
0000f0 00 00 00 00 00 00 00 00 00 00 00 00 00 00 00 00
       0.0 0.0 0.0 0.0
000100 00 00 00 00 00 00 00 00 00 00 00 00 00 00 00 00
       0.0 0.0 0.0 0.0
000110 00 00 00 00 00 00 00 00 00 00 00 00 00 00 00 00
       0.0 0.0 0.0 0.0
000120 00 00 00 00 00 00 00 00 00 00 00 00 00 00 00 00
       0.0 0.0 0.0 0.0
000130 00 00 00 00 00 00 00 00 00 00 00 00 00 00 00 00
       0.0 0.0 0.0 0.0
000140 00 00 00 00 00 00 00 00 00 00 00 00 00 00 00 00
       0.0 0.0 0.0 0.0
000150 00 00 00 00 00 00 00 00 00 00 00 00 00 00 00 00
       0.0 0.0 0.0 0.0
000160 00 00 00 00 00 00 00 00 00 00 00 00 00 00 00 00
       0.0 0.0 0.0 0.0
000170 00 00 00 00 00 00 00 00 00 00 00 00 00 00 00 00
       0.0 0.0 0.0 0.0
000180 00 00 00 00 00 00 00 00 00 00 00 00 00 00 00 00
       0.0 0.0 0.0 0.0

weight f4 [100, 100]
000000 d5 ee 84 3b 40 71 9b ba 46 93 cd b9 65 9c 06 ba
       0.0040567913 -0.0011859313 -0.00039210374 -0.0005134999
000010 96 4d 28 3b b7 e3 48 bb 80 78 b4 3a b4 15 50 3a
       0.002568101 -0.0030653307 0.0013768822 0.00079378043
000020 f6 d3 48 ba 36 86 e5 39 9e 6f aa 3a 8f 43 83 3b
       -0.0007660979 0.0004377828 0.0013003235 0.0040058563
000030 e1 28 2f 3b 4b fd 30 bb 10 a3 33 ba 42 f0 bb 39
       0.0026727247 -0.0027006443 -0.00068526063 0.00035846425
000040 b7 76 27 ba 24 dd 03 3b cf 52 0d ba c9 71 85 bb
       -0.00063882343 0.0020120824 -0.00053910626 -0.004072402
000050 67 27 d4 ba 9c 61 80 ba 4f 89 8b b9 cb e6 41 3b
       -0.0016186059 -0.0009794715 -0.0002661445 0.0029587026
000060 87 e9 7d b9 8a e5 dc ba 6e c2 a0 ba 71 5d a5 3a
       -0.00024214956 -0.0016853076 -0.0012264976 0.0012616349
000070 53 c9 0e 3b f5 20 4d ba ed bb 09 3b 43 63 1e 39
       0.002178748 -0.00078250404 0.0021016554 0.00015105032
000080 8f 4a b6 ba d6 16 35 3b f8 e0 b1 ba 5d 33 1c 3a
       -0.0013907718 0.002763202 -0.0013571074 0.00059585815
000090 d1 df ef ba 3e 66 45 3a 7c 18 df b9 c8 8a e8 ba
       -0.0018300955 0.0007530189 -0.00042552117 -0.0017741555
0000a0 e4 a5 d5 3a 0b 0d e3 3a 2f e7 60 ba ca 0f af 39
       0.001630005 0.0017322613 -0.0008579371 0.00033390365
0000b0 13 31 68 bb 52 21 43 bb e8 10 7e ba ca 28 af ba
       -0.003542964 -0.00297745 -0.000969185 -0.0013363597
0000c0 b3 83 cd ba 9e c7 83 bb ae 06 a0 ba 19 ea 79 3b
       -0.0015679508 -0.004021599 -0.0012209022 0.0038133918
0000d0 d1 b2 01 3b 87 28 f5 b8 d5 a2 17 ba 69 fe 6a bb
       0.001979042 -0.00011690059 -0.0005784457 -0.0035857207
0000e0 00 34 97 ba af d1 b1 ba ea fd 8d 39 64 74 c0 3a
       -0.0011535883 -0.0013566519 0.00027082796 0.0014683125
0000f0 43 36 d0 39 a2 0c 6e 3b 3f 12 e4 39 68 39 26 3a
       0.0003971328 0.0036323448 0.00043501143 0.00063409517
000100 62 5d 8f 3a 51 60 e3 3a 2a 7d 11 3b c2 ee 99 3a
       0.0010937864 0.001734743 0.0022199848 0.0011744129
000110 2c ed b8 3a 45 c1 1d 39 10 97 6a ba 03 8d 39 ba
       0.0014108769 0.00015044685 -0.00089489017 -0.00070782023
000120 7e 48 5b 3a 95 af 06 b9 10 45 2d ba a2 24 19 3b
       0.0008364989 -0.00012844645 -0.00066097174 0.0023367782
000130 39 3d 04 bb 01 5c 85 3a 2b f9 5d 3b 2b 7b 4e bb
       -0.0020178093 0.0010174514 0.003387044 -0.003150652
000140 50 86 98 3a 8e 56 a6 39 68 f6 29 3a a3 ee d8 ba
       0.0011636708 0.00031726476 0.0006483556 -0.0016550611
000150 f0 6f 3f ba d6 9c 41 39 52 d9 23 3b b2 0e 85 3b
       -0.0007302752 0.0001846434 0.002500136 0.0040605897
000160 62 74 83 bb 30 ba d9 3a 2c c1 0d bb 15 f5 25 bb
       -0.0040116766 0.0016611274 -0.0021630032 -0.0025323082
000170 c8 6e 82 b9 87 37 c7 3a 1c b9 ed 3a c0 c3 fd ba
       -0.0002487807 0.0015199044 0.0018136832 -0.0019360706
000180 89 49 25 bb 2f 95 12 3a fd c2 a4 3a bb 59 3c b9
       -0.0025220832 0.0005591688 0.0012570318 -0.00017962504
000190 42 3b 05 ba ee 60 af 3a df c5 0c bb 74 fa 43 3b
       -0.00050823775 0.0013380328 -0.0021480245 0.002990392
0001a0 c2 26 25 bb ff b6 80 3b 6d 60 dc ba b9 b7 16 ba
       -0.0025200103 0.003928065 -0.0016813405 -0.00057494227
0001b0 78 18 55 bb 37 0c ab ba d4 30 42 bb 8d 02 11 3b
       -0.0032515805 -0.0013049905 -0.0029631155 0.0022126765
0001c0 a7 89 87 b9 5b 79 1c bb 7c 1e 77 b9 8f b7 4d bb
       -0.00025851766 -0.0023876044 -0.00023567112 -0.0031389927
0001d0 75 b9 ae 39 be e9 88 3a 6c 06 a3 3a 45 15 4a 3a
       0.00033326042 0.0010445637 0.0012437827 0.0007708858
0001e0 8c 94 0c bb 58 bd 02 3a 6e 5e 30 3b 41 66 fa 3a
       -0.0021450846 0.0004987321 0.0026911753 0.001910396
0001f0 91 32 a4 39 d1 20 2d 3a 8f 42 3a b8 5b b8 82 ba
       0.00031318192 0.00066043163 -4.4407843e-05 -0.0009973155
000200 41 5d 97 bb 65 d8 8a 3b fb 45 c0 ba 14 1c c9 b9
       -0.004619271 0.004237222 -0.0014669293 -0.00038358627
000210 6b ce 56 bb fb 70 31 3b bb 6f 58 3a 13 b3 57 38
       -0.0032776843 0.0027075398 0.0008256395 5.142677e-05
000220 52 f0 47 ba 0b f2 3c bb 42 ac 1e bb 83 97 5f 3a
       -0.0007627058 -0.0028830792 -0.002421156 0.0008529352
000230 c6 c8 94 ba ba 0d b0 b8 83 ae c5 3a 03 bf 9e 3a
       -0.0011351339 -8.394891e-05 0.0015081916 0.0012111369
000240 41 88 07 b8 07 46 4e bb 92 5a 94 3a e8 a5 2a ba
       -3.2313405e-05 -0.0031474845 0.0011318496 -0.00065097073
000250 aa f8 96 3b bf b8 d7 b9 a3 4f 25 3a cf 00 3a ba
       0.00460728 -0.00041145642 0.0006306117 -0.00070954574
000260 84 cb 91 37 0e 3f b2 3a bf ab e6 ba 1a f4 93 ba
       1.7380116e-05 0.0013599114 -0.0017598792 -0.0011287958
000270 c7 8f 14 3a ea b7 52 3b 02 d3 c9 ba e1 f9 00 3b
       0.00056671764 0.0032153078 -0.0015397968 0.001968019
000280 b2 72 b6 3a 8c 0f 4e 3a 0c 4f f3 3a ba 52 31 ba
       0.001391968 0.0007860593 0.0018562987 -0.00067643414
000290 a5 49 2d 3b 60 22 c4 ba 2f 53 35 ba 07 a5 cc ba
       0.00264416 -0.0014963858 -0.00069169974 -0.0015613147
0002a0 5a 1d ad ba 32 af f5 39 32 bf 9f 3a 45 d4 5b 3b
       -0.00132076 0.00046860572 0.0012187718 0.003354327
0002b0 83 b4 27 3a de c3 3a bb 1d 06 24 3a 40 0c 4e bb
       0.0006397443 -0.0028498094 0.00062570145 -0.0031440407
0002c0 b7 c7 04 38 3d a5 af 37 33 d2 ad 39 84 d8 5a 39
       3.165725e-05 2.093857e-05 0.00033153742 0.00020870758
0002d0 1f 47 40 3a 61 9e 8d 3b fb 63 a6 bb 5c cc 8a 39
       0.00073348166 0.0043218588 -0.0050778366 0.0002647367
0002e0 80 97 d9 3a 6a 79 da 3a 30 22 9c 37 99 41 9c 3a
       0.0016600937 0.0016668264 1.8612569e-05 0.0011921405
0002f0 e4 a1 68 bb 0a 80 12 bb 38 2e 3f bb cf 59 84 ba
       -0.0035496885 -0.002235415 -0.0029171836 -0.0010097566
000300 9e 3f 5d 3a b5 3a dd b7 07 d2 ab bb a7 50 83 bb
       0.00084399607 -2.637259e-05 -0.005243543 -0.0040074172
000310 ce bf 23 38 d5 b3 80 ba 69 98 ac 3a dc 03 d5 3a
       3.904086e-05 -0.0009819219 0.001316798 0.001625176
000320 5c a6 4b bb d9 16 d0 ba a3 d8 36 3b 40 d5 1c 3b
       -0.00310745 -0.001587595 0.0027900122 0.0023930818
000330 5a 51 2d 3a e9 c0 2e bb b0 ae 7a ba 0c e0 9b ba
       0.00066115486 -0.0026665276 -0.00095627736 -0.0011892333
000340 50 5c 1b 3b d0 f3 34 ba 0b e2 2e 3b c4 6f ca b9
       0.0023706146 -0.0006902786 0.0026685025 -0.00038611714
000350 f0 99 8c 3a 2a 5e 4c 38 1e 20 dd ba ef ee 09 3b
       0.0010727029 4.8725087e-05 -0.0016870534 0.0021046957
000360 73 7e 23 ba 3e 18 81 3b 00 61 d6 39 d7 54 24 ba
       -0.0006236799 0.0039396575 0.0004088953 -0.00062687456
000370 08 83 10 3b 5e e0 94 3a 8b b5 76 ba cb 44 e5 b9
       0.0022050757 0.001135837 -0.0009411207 -0.00043729538
000380 65 95 9c 3a 25 11 e1 39 cc 46 42 ba 53 df 83 b8
       0.0011946379 0.00042928118 -0.0007411062 -6.288164e-05
000390 63 0d 72 3a 25 a4 34 39 7e 84 be 3a e2 a1 b8 3a
       0.0009233562 0.00017227286 0.0014535335 0.0014086331
0003a0 26 92 0b 39 6c 1c 65 3a 46 60 65 bb 6a dd 19 ba
       0.00013310518 0.0008739892 -0.003500001 -0.000586948
0003b0 72 45 f8 3a ab 20 09 38 bf 6c 2a bb b6 92 b2 38
       0.0018941595 3.269377e-05 -0.002600476 8.5150285e-05
0003c0 1e f2 45 39 23 96 99 ba 3d 19 37 3b 1b 87 72 3b
       0.0001887758 -0.0011717718 0.0027938627 0.0037006799
0003d0 03 c1 c4 39 98 21 50 b9 8d fa 98 b9 33 2f ba 39
       0.00037527838 -0.0001984894 -0.00029178374 0.0003551185
0003e0 f5 b2 49 bb 70 a8 60 38 0f 3e b9 39 71 98 12 bb
       -0.0030776833 5.356263e-05 0.00035332187 -0.0022368694
0003f0 5c bc 31 39 96 71 26 3b f7 bb 47 bb 47 8d 4f bb
       0.00016950205 0.0025397292 -0.0030477026 -0.0031669901

bias f4 [100]
000000 00 00 00 00 00 00 00 00 00 00 00 00 00 00 00 00
       0.0 0.0 0.0 0.0
000010 00 00 00 00 00 00 00 00 00 00 00 00 00 00 00 00
       0.0 0.0 0.0 0.0
000020 00 00 00 00 00 00 00 00 00 00 00 00 00 00 00 00
       0.0 0.0 0.0 0.0
000030 00 00 00 00 00 00 00 00 00 00 00 00 00 00 00 00
       0.0 0.0 0.0 0.0
000040 00 00 00 00 00 00 00 00 00 00 00 00 00 00 00 00
       0.0 0.0 0.0 0.0
000050 00 00 00 00 00 00 00 00 00 00 00 00 00 00 00 00
       0.0 0.0 0.0 0.0
000060 00 00 00 00 00 00 00 00 00 00 00 00 00 00 00 00
       0.0 0.0 0.0 0.0
000070 00 00 00 00 00 00 00 00 00 00 00 00 00 00 00 00
       0.0 0.0 0.0 0.0
000080 00 00 00 00 00 00 00 00 00 00 00 00 00 00 00 00
       0.0 0.0 0.0 0.0
000090 00 00 00 00 00 00 00 00 00 00 00 00 00 00 00 00
       0.0 0.0 0.0 0.0
0000a0 00 00 00 00 00 00 00 00 00 00 00 00 00 00 00 00
       0.0 0.0 0.0 0.0
0000b0 00 00 00 00 00 00 00 00 00 00 00 00 00 00 00 00
       0.0 0.0 0.0 0.0
0000c0 00 00 00 00 00 00 00 00 00 00 00 00 00 00 00 00
       0.0 0.0 0.0 0.0
0000d0 00 00 00 00 00 00 00 00 00 00 00 00 00 00 00 00
       0.0 0.0 0.0 0.0
0000e0 00 00 00 00 00 00 00 00 00 00 00 00 00 00 00 00
       0.0 0.0 0.0 0.0
0000f0 00 00 00 00 00 00 00 00 00 00 00 00 00 00 00 00
       0.0 0.0 0.0 0.0
000100 00 00 00 00 00 00 00 00 00 00 00 00 00 00 00 00
       0.0 0.0 0.0 0.0
000110 00 00 00 00 00 00 00 00 00 00 00 00 00 00 00 00
       0.0 0.0 0.0 0.0
000120 00 00 00 00 00 00 00 00 00 00 00 00 00 00 00 00
       0.0 0.0 0.0 0.0
000130 00 00 00 00 00 00 00 00 00 00 00 00 00 00 00 00
       0.0 0.0 0.0 0.0
000140 00 00 00 00 00 00 00 00 00 00 00 00 00 00 00 00
       0.0 0.0 0.0 0.0
000150 00 00 00 00 00 00 00 00 00 00 00 00 00 00 00 00
       0.0 0.0 0.0 0.0
000160 00 00 00 00 00 00 00 00 00 00 00 00 00 00 00 00
       0.0 0.0 0.0 0.0
000170 00 00 00 00 00 00 00 00 00 00 00 00 00 00 00 00
       0.0 0.0 0.0 0.0
000180 00 00 00 00 00 00 00 00 00 00 00 00 00 00 00 00
       0.0 0.0 0.0 0.0
