main/reinvent_selfies/data/logs/init_weight_GRU_embedding.npy (npy, 1152 bytes, 1 tensors)

array f4 [2, 128]
00000000: 62c2 c3bd a9c1 4b3f 229d 1e3f 91ba 7ebf
00000010: 9d43 1abf 46cd 803e 962f 463d 5c8e f53f
00000020: f1b4 1abe 7f9f a93f 3fdc 44c0 3d11 38c0
00000030: c1ad 10bf 9f8e e33f c4ff 99be 204c 68bf
00000040: 4655 abbf f1be b4bf 583b 7dbf 166f 01bf
00000050: ddcf 35bf 3d93 2cc0 96b4 4fbf 28e9 bfbf
00000060: 2021 84be e9d1 66bf 1fe5 a6bf 05c0 863f
00000070: 23e6 7a3f b21a 373f a901 2dc0 d070 6abf
00000080: 8cf7 80be d9b7 2abf a84d 04bd 22d3 0f40
00000090: 915d 283e 5265 bb3f 02bc 433f 7a79 933f
000000a0: b356 bebf 97d2 553f 3d2a 7e3f 505e a13e
000000b0: 3819 0ec0 5d8c 89bf ca34 493f 6365 0abf
000000c0: e8f8 a63d a383 90bc becf 87be a425 01bf
000000d0: d483 78bf ddf6 57be c876 59bf fd4e 8ebf
000000e0: b844 d43d 6c0e b9bd b2aa 1ebf bf80 2e3f
000000f0: 7c37 533f f965 9abf e02c f33f 52b2 9dbf
00000100: 6d74 d1bf 420e 61bf 694f 843f 4e79 66be
00000110: 9496 ba3f 510e ddbf e717 1a40 131f 8cbe
00000120: a8ac 4fc0 fec2 9fbf 325b 50bf ae4a 2abf
00000130: f5bb 58bf b0a4 24bf 244c 393e 3b0c df3f
00000140: 7bd6 21be bb8b 89be 9127 8b3f 5e6d 6cbf
00000150: f3b3 1b40 3ca1 7dbe 98d4 7c3e ddb6 04bf
00000160: e611 df3f aa39 32bf 2519 713f f69d 87bf
00000170: 7d88 debf afab dbbf ca4a ebbe 8bf4 5abf
00000180: 5cff a2bf 2034 dc3f 1e9f 893f 17a3 0d3e
00000190: 88d1 c13e e4b2 b23e 119a 33bf d880 ca3f
000001a0: fd51 24c0 f9fd dc3f 1f3c 8ebf df6b b03e
000001b0: c458 eebf 02b6 a2bf 47fd 8b3f aa3a 31bf
000001c0: 9c73 0eba e584 353f e71d 9fbf 2e84 3cbf
000001d0: d3e4 cabe 2405 99bf 00a1 623f 2896 543f
000001e0: 5519 88bf 186b 49bf 960f 943f 9a3f f3bf
000001f0: df51 03c0 b1c8 8a3f 5267 9b3d ca92 693f
00000200: 87f7 6ebf 2782 5a3f e646 623e ecde 2abf
00000210: 692b 12bf 27c1 e63e 090a fd3e cc2a 083c
00000220: 1a90 c23d dea7 903f 74e1 0ebe c6b7 6f3f
00000230: a368 09c0 d9a7 f93e 53af a73f ee51 103f
00000240: 8e3c 0ebf c3c3 4abf e145 91bf 77fa 3ebd
00000250: 14a4 a1be 0639 d6bc 8223 ec3f 8eb0 ef3d
00000260: 6b6c acbf 86e1 8dbe b633 3fc0 d378 fdbf
00000270: 0bec a83f f854 8a3e b853 aa3e b6fc c03f
00000280: c4b4 20bd 1990 7a3f f580 e8be 54b3 293f
00000290: 33c4 0ebe d69d 80bf 5368 d7bf 7c55 bebe
000002a0: 4e7b d1be 8ec7 01c0 e3ac 31bf 2548 b8be
000002b0: 3927 dc3e 4005 56be 9c05 4dbf bf60 553f
000002c0: 1e81 523f 2787 7ebe 25b8 83bf 2ea9 5c3f
000002d0: 7432 133f ecf3 bf3f 3ba6 d5be 2753 0bbe
000002e0: 8ca6 16c0 a68d 783f 4059 fa3e 839d c63e
000002f0: fa3e d9bf a7fa 46be 8216 b93f e011 e33e
00000300: 8fb6 06c0 dbfe 07be b7c6 cd3f 0259 17be
00000310: 9047 25be aae3 61bf 4aab ad3f 49e1 9b3e
00000320: 1673 13bf a659 49bf 42fe 803e 5a60 903f
00000330: a231 2fbf 3b51 0b3f a89a b73f 988d 0c3f
00000340: f72d 1f3f 78c7 e7bf 6f4c 483f ae0e cc3f
00000350: f199 d9bd 0acf 523e a457 61bf b779 01be
00000360: c8df 703d 679b 69be c0db 83bf 7ed2 093f
00000370: a555 cb3f 6616 af3f 94e9 9b3e 3e38 d93e
00000380: 5a92 f63e 64a8 0cbf 1337 993d 18fe 143f
00000390: 209d 00c0 ca1c d33f d6fa 943f cb98 cf3f
000003a0: 4b07 0fbe cf52 f6bf 30f0 31be 2fd1 b0bf
000003b0: dcb6 9d3e 9354 a5bf 20d0 c2bf 1a4e 72bb
000003c0: 8892 ad3f 96e5 edbf 3977 613e 6eec 163f
000003d0: 0e57 613d ccc5 d63e e2b6 e83e 0e69 acbe
000003e0: 4a77 27bf b348 d93e b4b9 c2bf a90f 203f
000003f0: e8b0 a3bf 40fc 1fbf 0976 8dbe 0e7f bf3f
-0.0955856 0.79592377 0.61958516 -0.9950343 -0.6025942 0.2515661 0.048385225 1.918407
-0.15108086 1.3251799 -3.0759428 -2.8760521 -0.5651513 1.77779 -0.30077946 -0.9074116
-1.3385398 -1.4120771 -0.98918676 -0.5056013 -0.710203 -2.6964867 -0.8113493 -1.4993029
-0.25806522 -0.9016405 -1.3038672 1.052735 0.9800741 0.7152511 -2.7032263 -0.9157839
-0.25188863 -0.6668678 -0.03230062 2.2472615 0.16441943 1.4640296 0.7645875 1.1521447
-1.4870209 0.8352446 0.992832 0.31517267 -2.2202892 -1.074596 0.78596175 -0.54060954
0.08152944 -0.017640894 -0.26525682 -0.5044806 -0.97076154 -0.21090265 -0.8494687 -1.1117855
0.103646696 -0.09035954 -0.6197921 0.681652 0.8250654 -1.206237 1.899807 -1.2320044
-1.6363655 -0.8791238 1.0336734 -0.22507212 1.4577203 -1.7269994 2.407709 -0.27367458
-3.244913 -1.2481382 -0.81389153 -0.665202 -0.846618 -0.64313793 0.18095452 1.7425607
-0.15804474 -0.26864418 1.087145 -0.9235438 2.4328582 -0.24768537 0.24690473 -0.5184153
1.7427337 -0.6961924 0.9417899 -1.0595081 -1.7385403 -1.7161769 -0.45955497 -0.8552939
-1.273418 1.7203407 1.0751684 0.13831745 0.37855172 0.34902108 -0.7015696 1.582057
-2.5675042 1.7265006 -1.1112098 0.344573 -1.8620839 -1.2711794 1.0936669 -0.6923014
-0.0005434097 0.70905906 -1.2431 -0.7363919 -0.39627704 -1.1954694 0.88526917 0.8304162
-1.0632731 -0.7867904 1.1567256 -1.9003785 -2.051872 1.0842496 0.07588066 0.9123961
-0.93346447 0.85354847 0.22097358 -0.667464 -0.5709749 0.4506924 0.4942172 0.008310985
0.095001414 1.1301229 -0.13953191 0.9363979 -2.1470115 0.4876087 1.310038 0.56375015
-0.5556115 -0.7920496 -1.134945 -0.04662558 -0.31570494 -0.026150238 1.8448336 0.11703597
-1.3470587 -0.27711123 -2.9875312 -1.9802498 1.3197035 0.2701795 0.33266997 1.5077121
-0.03923489 0.97876126 -0.45410886 0.6628926 -0.13942032 -1.0048168 -1.6828712 -0.37174594
-0.40914387 -2.0278049 -0.6940443 -0.35992542 0.42998675 -0.2090044 -0.80086684 0.8335075
0.8222827 -0.24856244 -1.0290571 0.8619565 0.5749886 1.4996314 -0.41728386 -0.13605939
-2.3539152 0.9709114 0.48896217 0.38792047 -1.6972344 -0.19431554 1.4459994 0.44349575
-2.1048925 -0.13280813 1.6076268 -0.14780048 -0.1614058 -0.8823801 1.3567898 0.30445316
-0.5759748 -0.7865242 0.25193983 1.1279404 -0.6843511 0.5442082 1.4344072 0.54903555
0.6217951 -1.8107748 0.7824163 1.594198 -0.10625065 0.20586792 -0.88024354 -0.12644087
0.058807164 -0.22813188 -1.0301437 0.5383681 1.5885512 1.367871 0.30451643 0.42425722
0.48158532 -0.54944444 0.07481208 0.58200216 -2.0095901 1.6493161 1.1639049 1.6218504
-0.13967626 -1.9244021 -0.1737678 -1.3813838 0.30803573 -1.2916435 -1.5219765 -0.0036972822
1.3560343 -1.8585689 0.22018136 0.58954513 0.055014662 0.41947782 0.4545203 -0.336739
-0.65416396 0.42438278 -1.5212922 0.62523896 -1.2788363 -0.6249428 -0.27629116 1.4960649
