main/reinvent_selfies/data/logs/init_weight_GRU_layer_2_w_ih.npy (npy, 32896 bytes, 1 tensors)

array f4 [16, 512]
000000 63 3d cf bd 4c 05 33 3c b3 12 0c be e3 e8 ac 3c
       -0.101191305 0.010926556 -0.13679008 0.021107143
000010 fe 47 9a 3c 7f 98 f0 bc f3 3b 94 3d 48 da 0e bd
       0.018833157 -0.02936959 0.07237997 -0.034876138
000020 45 fa 6d 3e e2 23 5d 3d 0b 7b 48 bc 87 52 aa 3d
       0.23240001 0.0539893 -0.012236367 0.08316522
000030 0b dd ef 3d 1b 6a 83 bc 74 25 06 be b2 6f 3d 3c
       0.117120825 -0.016041806 -0.13100225 0.011562275
000040 2e 3f 9b bc dd f8 2a 3e 8f 8a 8f bd cd 0f e9 3d
       -0.018951025 0.16696496 -0.0700885 0.11379967
000050 eb c3 63 3d d6 e6 79 bd 29 cf 68 bb 64 16 8e 3d
       0.055606764 -0.061011158 -0.0035523868 0.069378644
000060 55 3f 49 3d ce c8 34 3e 0d 74 1e 3d 14 8b 11 be
       0.049132664 0.17654726 0.038684893 -0.1421321
000070 31 cc bb bd 04 0e 43 3d 12 6d 2f be 7b 37 5d 3d
       -0.09169806 0.04762079 -0.17131451 0.05400799
000080 8b 21 85 3d a9 7b 1a 3e 1a fd a0 bd 68 0f fd 3d
       0.065005384 0.15086235 -0.07860775 0.12356454
000090 2a 2b 9b bb 3c ed 33 be 10 61 01 be e7 b3 88 bd
       -0.00473537 -0.17570966 -0.12634683 -0.06674939
0000a0 91 31 14 3e be 41 a0 3d 5f 39 a2 bd db 8d 0a 3d
       0.14472033 0.07825039 -0.07921099 0.03382669
0000b0 96 79 aa 3d 13 28 4c 3d b2 c1 61 3e 93 f1 06 3d
       0.08323972 0.049842905 0.22046545 0.032945227
0000c0 15 5e 3a bb 50 19 46 bd 65 bb a2 3d 31 c8 5b bd
       -0.0028437425 -0.048363984 0.07945899 -0.053657714
0000d0 d0 2c 1f be 74 74 c9 3d 92 6d 93 3d 74 ee eb 3d
       -0.15544438 0.09836665 0.07198633 0.11520091
0000e0 4d 69 4c 3c f9 c3 48 3d e0 60 ef bd 93 f1 df 3d
       0.012476278 0.04901502 -0.11688399 0.109347485
0000f0 e5 f3 e6 3b 0b 95 83 3d 42 d5 91 3d 27 46 91 bd
       0.0070481175 0.06424912 0.07120754 -0.070934586
000100 51 e5 e4 3c db 26 3f bd e6 f3 61 be 1d 3b 44 bd
       0.027941378 -0.046667915 -0.22065696 -0.047907937
000110 38 61 e3 3d 27 d1 2e be a4 c2 b9 3d 33 f3 a9 3d
       0.111025274 -0.17071973 0.09070328 0.0829834
000120 10 e2 87 bd 83 08 1d be 02 ed b7 3d 7f 03 1a 3e
       -0.06634915 -0.15335278 0.089807525 0.15040396
000130 91 4e 24 bd b0 f5 1b be 6c 44 da bd ff 29 94 bd
       -0.04011399 -0.15230441 -0.10657582 -0.072345726
000140 94 bb 0d bd 2d 2b 43 bd a2 9d 45 bd 33 2c 8a 3d
       -0.034602717 -0.047648598 -0.048246033 0.067467116
000150 3e ea 2c bc 97 12 ee bd a1 32 ff bd ba a4 1f 3c
       -0.010553895 -0.116246395 -0.124608286 0.009743864
000160 0f 95 20 bc 35 dd 38 3e 62 d3 81 3e 4c 9e d3 bb
       -0.009801163 0.18053134 0.25356585 -0.0064580794
000170 9c 5a 16 3d bf b0 2c be 83 2d 81 3d ea 93 32 3d
       0.036707506 -0.16864298 0.06307509 0.043598093
000180 57 fd 1e 3e 9e 07 24 3e 04 9b ab 3d 83 5c 90 3d
       0.15526329 0.1601853 0.08379176 0.07048895
000190 12 f9 17 be a9 40 fc bb 23 16 b3 3d 27 0c 11 be
       -0.14841107 -0.007698138 0.087444566 -0.14164792
0001a0 ca 1f 2a bd bd 26 f3 3d 53 30 4f 3d ed 2e 1d be
       -0.041534223 0.11872623 0.050583195 -0.15349932
0001b0 eb d1 55 3e 62 89 9e 3b ee 03 61 b9 0b e2 b9 bd
       0.20880859 0.0048381547 -0.00021459136 -0.090763174
0001c0 1f 3e d1 3c 97 2c 9d bd 3d b7 e0 3d 73 f5 a5 bb
       0.025542317 -0.076745205 0.1097245 -0.00506466
0001d0 dd a9 88 3c 23 69 d0 bd 92 7e 95 bd 8b 06 2c 3e
       0.01668256 -0.10176303 -0.07299532 0.16799371
0001e0 fe e5 99 3d 18 a0 16 bd 48 c9 0e bd 63 c1 af bd
       0.07514571 -0.03677377 -0.034859926 -0.085818075
0001f0 c5 5c db bb 4f 5b c6 3d cc da b4 3b 95 29 98 3d
       -0.0066944086 0.096853845 0.0055192467 0.07429806
000200 b6 b6 2c be 29 be 99 bd 0f 8f 3b 3d 64 0e 97 3c
       -0.16866574 -0.07506973 0.04579073 0.01843948
000210 2e 3c b9 3d 25 d4 1a bd dc 25 e7 bd 7b 20 1b 3e
       0.090446815 -0.037799973 -0.11286518 0.15149109
000220 ec d1 cb 3d c8 0d f3 3c 5a 57 33 3e 47 c1 f2 bd
       0.09952149 0.029669657 0.1751379 -0.11853271
000230 5c 09 ad be 08 45 f3 3c 4d 85 fd 3d 0c 5c f0 3c
       -0.33796203 0.029696003 0.12378941 0.029340766
000240 a5 8c 52 3e 5f 60 98 3d 77 92 a3 bd f5 d7 c7 bd
       0.20561464 0.07440256 -0.0798692 -0.097579874
000250 94 9d 00 bd 98 a1 7b bd 85 93 45 3e 7c 81 40 bc
       -0.03140028 -0.061433405 0.19294555 -0.0117496215
000260 a2 9b 1e 3c 39 e2 2f be 1c 47 21 bd 63 47 5c 3e
       0.00968066 -0.17176141 -0.039374456 0.21511607
000270 3d 3f 96 bd b7 73 44 3e c0 c8 46 bd c0 69 3c 3d
       -0.073362805 0.19184767 -0.048531294 0.04599929
000280 ba a7 db bd 94 c2 27 be 77 83 23 be 38 b1 99 bd
       -0.10725351 -0.1638282 -0.15968119 -0.07504505
000290 d8 30 ba bc 8b 95 d0 3b 05 65 56 3d f3 e7 0d 3d
       -0.022728369 0.006365483 0.052342433 0.034645032
0002a0 33 57 e3 bc 0a 2a c9 3d d5 12 56 bd 11 97 f7 3c
       -0.02775154 0.098224714 -0.052264053 0.030223401
0002b0 30 fc 1b 3e f6 b0 b7 3c 81 87 23 3d 9c 24 f9 3d
       0.1523292 0.022423249 0.03992415 0.12165186
0002c0 5b 54 9a bd ad 49 d5 3c 6d 40 8c be 28 b7 86 bc
       -0.07535621 0.026036108 -0.27392903 -0.016444758
0002d0 e2 5b 68 bd 61 56 87 bd 7e 52 23 be 3c 41 7f 3e
       -0.05672825 -0.06608272 -0.15949437 0.24927229
0002e0 86 5b 5e be 62 8a 53 bd 79 c6 40 bd 15 b2 42 bd
       -0.21714601 -0.051645644 -0.04706428 -0.047533114
0002f0 01 dd 08 3d df 7b b0 3c 88 6e bf bc 63 d0 56 3d
       0.03341389 0.021543441 -0.023368135 0.052444827
000300 d3 c5 40 be 73 27 50 bd 43 45 84 3d 60 6e d5 3d
       -0.18825464 -0.05081887 0.06458523 0.10421443
000310 b4 d0 89 3d 0e 27 59 bc 7e 00 25 3d 2d 1d 8b 3e
       0.0672926 -0.01325394 0.040283673 0.27170697
000320 69 1d a1 bd 7e 6c 56 3c 84 65 53 3d 14 cd 1d bd
       -0.07866938 0.01308739 0.051610485 -0.038525656
000330 c6 92 c5 be 26 bf 00 3d 33 40 0a 3e 80 63 0c 3e
       -0.38588542 0.031432293 0.13501053 0.13709831
000340 66 07 d9 3d 72 54 1b bd 14 9d 13 bc 1c dc 00 be
       0.10597114 -0.03792233 -0.009009618 -0.12583965
000350 84 5b c5 bc 4f cc ae bd f6 20 e5 bc 4b 68 a2 3e
       -0.02409149 -0.085350625 -0.027969819 0.31720194
000360 15 66 43 be 14 7f 09 3e b5 7a 55 bd e4 cc ef bd
       -0.1908191 0.13427383 -0.052118976 -0.11709002
000370 8d 18 00 3b f6 5a 42 be e2 08 a5 3d 38 60 e8 3c
       0.0019545883 -0.18980011 0.08058335 0.028366193
000380 69 74 6f bb 68 1a eb bd c5 63 d5 bd 8d 95 2a 3d
       -0.0036537892 -0.11479646 -0.1041942 0.04164653
000390 94 51 89 3d 07 2d d4 39 43 72 57 3d 08 d6 04 bd
       0.06705013 0.0004046934 0.052599203 -0.03243068
0003a0 4f 75 e5 bd 83 68 4c bb 8a 5c fc 3b 10 0f 9d 3c
       -0.112040155 -0.0031190224 0.007701461 0.019172221
0003b0 0b 00 b5 bd b7 55 5c bd c2 d8 93 bd ab 23 88 bc
       -0.08837899 -0.05379268 -0.07219078 -0.01661857
0003c0 4b 35 db bc 17 2b 0a 3d a1 a4 10 be a0 f5 a8 bc
       -0.02675881 0.0337325 -0.14125301 -0.020624936
0003d0 87 be b6 bc 9a 22 86 bd ee 42 af bd 6b 23 db 3c
       -0.022307647 -0.065495685 -0.08557688 0.026750287
0003e0 d3 1b d1 bc 8e f0 a3 bd 59 0e 36 3c 22 66 13 bd
       -0.025525963 -0.080048665 0.011111819 -0.035986073
0003f0 db 07 87 3e 68 39 12 3c c0 30 6e be 9b 4c 27 3d
       0.2637318 0.0089248195 -0.23260784 0.04084454
