main/reinvent_selfies/data/logs/init_weight_GRU_layer_2_b_ih.npy (npy, 6272 bytes, 1 tensors)

array f4 [1536]
00000000: 9e63 8238 a58b 5b3d 2ff3 31bd 8526 5c3d
00000010: 075a f6bc 8273 023d f4a5 b23d f365 143d
00000020: b591 dabb f100 50bd 33fd 1abd 86a9 20bd
00000030: cb6b a8bb 1832 2b3d b1ea 36bd aaea 1a3d
00000040: 6312 a13c db04 99bc 3b9d 6fbd e08b 733c
00000050: 5f4c 1c3b 5900 913d 5cfe ad3d 68d3 ca37
00000060: 4cd0 133d 7d61 213c 1ec4 cabc 5f01 c33d
00000070: 80c2 543d 849b 22bd c108 1cbd f34f 973d
00000080: 98a6 2dbc 4cee d6ba 027e f5bb 2e07 2f3c
00000090: dbf9 0fbc 6061 523d ad90 6bbc 6272 c83d
000000a0: c0a7 0cbd 6409 bd3c 877d 563d 2c8c fe3c
000000b0: a4f5 1d3c e20f 153c da41 26bc b164 1fbd
000000c0: 9f0e 173b 8807 1ebc 9cd6 1cbb 06d1 943d
000000d0: 0a30 cd3d afb2 23bb 173d 5dbc 45c7 d2bb
000000e0: 149c 203c 3bfb 8e3b 84f6 6c3d c199 db3d
000000f0: e3d7 8a3d 594a 173d 372c 90bc 0966 643d
00000100: ff82 d03d 78be d33c 058f 173d 17bc 703d
00000110: bc50 d7bc 83ad b53c db17 b23d bae2 1b3c
00000120: addc 113d f525 7f3d 6aa9 9e3c 0b22 9ebb
00000130: 3e23 e13c 2255 933d f3dc 00bc c8b1 2e3d
00000140: 5618 bf3d 85c7 c5bb ab37 b2bc 4a22 973c
00000150: 8311 303d e8eb 89bd 4303 f13c c2f3 5c3d
00000160: 2f56 b83a 66e5 483d dc26 af3c 9ea1 243d
00000170: 280d 3e3d 7ab9 683d 9c6b 103d 52b4 693c
00000180: ecb6 59bd 3b52 b13d 6e67 653c 0bca 5f3d
00000190: 6d99 3abc 49ce 01bd 29a8 4cbc 1c7e a13c
000001a0: ad55 c2ba eb13 fdbc 1aee 01bd 54a7 e83c
000001b0: 1c0b 5a3d 1f59 5bbb 7829 c63d 7c64 bbbd
000001c0: 79e3 f3bc 111c 88bb 58eb 45bd 297a ddbb
000001d0: d348 aabd 1f35 a83c 24cf 843d d036 0cbc
000001e0: e617 0f3c a55e 053c 0e61 baba 21dd 393d
000001f0: 83f4 aebd 32af 0abd fc0f 0d3e 96d1 653d
00000200: 2e15 2abd ac1e 2d3d 3ad1 cabc 434c 56bd
00000210: ec3c 943d 862e 3cbd 4953 f13b c264 0b3d
00000220: 0b03 5f3d 171b 3f3d 6f80 29bc 6bdf 163c
00000230: 715d e73d 2a42 b23d ca73 6bbd 7d1e 90bd
00000240: e9dd 923d 0b65 3f3d af4e a33c 0bc7 58bb
00000250: 20f9 5e3d 75fe e7bc 4899 92bb a78c 3e3d
00000260: 52db 0ebd cf9b 54bd 9ed4 a1bb 3815 f03c
00000270: a67b d7bc b069 ca3c 44c8 34bd 0b81 d23c
00000280: bd0b 46bd 970d 20bd b5f7 74bc f691 8ebc
00000290: a066 c03d ccb3 ba3c a6e2 253c c9b9 d8bc
000002a0: b83c 8b3d 8950 3a3d 9cef b03b fa48 643d
000002b0: 5b39 d13c 2cf4 b4bb 5234 8a3c a9d4 8ebc
000002c0: 2e8f 1a3e bd70 c23c 587c e5bc 2a70 4abd
000002d0: f917 02bc 9e9b 223d f04a 8cbd 5371 6dbc
000002e0: 61ca 4c3d 530e 9c3d 5984 19bc da89 50bc
000002f0: 792c 1d3d 0dab 883d fab5 01bd 247b f1bc
00000300: 5e7e 7ebd a41e 313d ea8d 33bc 2508 d1bb
00000310: 5b7e c63c 1fc1 e53c 5f42 fd3a bde7 2dbc
00000320: 431a c03d 7bee 4f3d ba2e e6bc 0436 febb
00000330: a08e aa3d 567e 47bd 7ed3 413d d97d 593d
00000340: 0bd3 b73c 0ad6 87bd 1424 ec3c 2193 89bc
00000350: 8e92 11bd 0d95 62bc 9384 b43d 3776 28bb
00000360: 583f 513d 1f12 603d 908c 7b3d 2ae0 403c
00000370: 8300 353d 7de6 f0bc 00f0 573c b5eb e83b
00000380: b6bf 92bc 7847 98bd 90ad b03c 73e9 86bd
00000390: 853e 433d b992 1ebd c3c5 643d e4fc c2bc
000003a0: c4c8 d63c 9c93 b33c 1d84 2abc be47 77bd
000003b0: 4ba0 d4bc 5f81 cd3c 85ac 733a 3201 003e
000003c0: 725e ba3c 4fdf 5abc 6e54 c73b c1a1 de3c
000003d0: 60e9 313b d8af 3bbb 8901 d5bc b6fc 203d
000003e0: d564 c43c 8aec 693d 6c02 3cbd cd15 1a3d
000003f0: b896 013d 3d30 e43b 4ed0 6fbd d2f6 4bbb
6.217438e-05 0.053599972 -0.04344481 0.053747673 -0.030072225 0.031848438 0.08723059 0.03623004
-0.0066702017 -0.050782148 -0.037839126 -0.03922417 -0.005139803 0.04179582 -0.044657413 0.03782145
0.019662088 -0.018679073 -0.058499556 0.014864892 0.0023849232 0.070801444 0.08495781 2.417872e-05
0.03608732 0.009849903 -0.02475172 0.09521746 0.051943302 -0.039699093 -0.038094286 0.07388296
-0.010598801 -0.0016397922 -0.007491828 0.010682864 -0.0087875975 0.051362395 -0.014377755 0.09787442
-0.034339666 0.023075767 0.052365806 0.031072699 0.009641085 0.009098025 -0.010147536 -0.038914386
0.0023049486 -0.00964535 -0.0023931628 0.072664306 0.10018928 -0.002497833 -0.0135033345 -0.006432446
0.009802837 0.004363445 0.057852283 0.107226856 0.067794584 0.036936138 -0.017599208 0.05576137
0.101812355 0.025847659 0.03700163 0.058773126 -0.026283614 0.022177463 0.08695956 0.009514505
0.035610843 0.062292058 0.019367892 -0.0048258356 0.027482625 0.07193972 -0.007865178 0.042650014
0.093308136 -0.0060357475 -0.02175506 0.018448967 0.04298545 -0.06734449 0.0294205 0.053943403
0.0014063771 0.049046896 0.021380834 0.040193193 0.046399266 0.05681751 0.035258874 0.014264183
-0.053152964 0.08658262 0.01400171 0.054636043 -0.011389119 -0.03169087 -0.012491264 0.019713454
-0.0014826559 -0.030893287 -0.031721212 0.0284001 0.05323325 -0.0033469868 0.09675878 -0.09150025
-0.029771553 -0.0041537364 -0.048320144 -0.0067589474 -0.08314671 0.020533143 0.064848214 -0.00855799
0.008733725 0.008140241 -0.0014219598 0.0453769 -0.08542731 -0.033858486 0.13775629 0.05610808
-0.041524105 0.04226558 -0.02475797 -0.052318823 0.072381824 -0.045942806 0.0073646647 0.034031637
0.05444626 0.046656694 -0.010345562 0.00920854 0.112971194 0.08704026 -0.057483472 -0.07037065
0.07171232 0.04672722 0.01993498 -0.0033077623 0.054436803 -0.028319577 -0.004473839 0.046520855
-0.03487713 -0.051906403 -0.004938676 0.029306993 -0.026304077 0.024708599 -0.0441363 0.025696298
-0.04835104 -0.03907546 -0.014951636 -0.017403584 0.09394574 0.022790812 0.010124838 -0.026455777
0.067986906 0.04548696 0.0053996574 0.05573366 0.025540045 -0.0055222716 0.016870651 -0.017435389
0.15093681 0.023735398 -0.028013393 -0.049423374 -0.007940286 0.03969919 -0.06850231 -0.014492351
0.04999769 0.0761992 -0.009369933 -0.012728179 0.03837249 0.0667325 -0.031667687 -0.029477663
-0.062132232 0.04324211 -0.010959128 -0.0063791447 0.024230173 0.028046189 0.0019322148 -0.010614333
0.09380009 0.050764542 -0.028098453 -0.007757904 0.08327985 -0.048704468 0.047320835 0.053098533
0.0224395 -0.066326216 0.028825797 -0.01679379 -0.035540156 -0.013829482 0.08814349 -0.0025705227
0.0510858 0.05470478 0.061413348 0.011772195 0.04418994 -0.02940678 0.013179779 0.0071081766
-0.01791368 -0.074355066 0.021567136 -0.06587496 0.047667045 -0.038714144 0.055852663 -0.023802228
0.02621878 0.021920972 -0.010407475 -0.060371153 -0.02595534 0.025086103 0.0009295422 0.12500456
0.022750113 -0.013358905 0.006083063 0.02717674 0.002714716 -0.0028638747 -0.026001709 0.039303504
0.023973862 0.057110347 -0.045900747 0.037618447 0.031637877 0.0069637583 -0.058548264 -0.0031122458
