main/REINVENT_SELFIES/data/logs/init_weight_GRU_layer_2_b_hh.npy (npy, 6272 bytes, 1 tensors)

array f4 [1536]
00000000: e4b2 d7bc c665 ee3c 8553 ac3c d80b 723d
00000010: 87b8 053c 1f65 d83c f469 c13d 4748 f23a
00000020: b325 513d 5c3f 2abd f5e2 e93c a72a 45bd
00000030: 050e 9b3c b7f4 0c3c 32a4 bfbb cb19 ef3c
00000040: feac 363d d3bd 803d b6c6 9dbd eb27 d53c
00000050: 366a 923b 8134 643d 9aff 563c c890 87bc
00000060: e7d4 4f3d 9fcc 4dbd d1f9 3cbd c107 823c
00000070: cbeb f53b 6b03 0fbd ccc1 4abd 56b0 8a3d
00000080: a800 983d 09f4 32bd 4cf2 2d3d cd64 803d
00000090: 3259 9b3b c243 1b3c 6f30 94bb e439 963d
000000a0: deb2 3fbc b7e5 6f3b 156e 713d 0c7b 6b3d
000000b0: 4099 3d3d a5b1 6cbc ff30 e33c ce29 89bd
000000c0: 0363 8c3b 35fe 7dbc 4c65 e63c 7f1b 863c
000000d0: 8149 ab3d eb71 013d 4fc0 cc3c 52bc 67bc
000000e0: eb46 883a 0577 1d3d f49c 083d bc9e 673d
000000f0: 4071 ab3d 2dfc a13b 8e29 f83c e279 103d
00000100: ee1b 323d 0990 283d 958d 2b3d 2c87 ca3c
00000110: 8cad d13c 6056 b5bb 84ee be3d d113 78bb
00000120: 464b 493d 3086 3a3d 553a 983c 3aa4 d23c
00000130: f566 833d 24bb 6e3d af85 863b 84dd 773c
00000140: dbf5 fb3d d1ad 8ebd 9166 373d d33f 483d
00000150: e2c0 513d 242d a8bd ba62 af3d c53d 523d
00000160: 0e0c eb39 33ae 343d e8a6 fb3c 4faa 3c3d
00000170: 58be f43c 4a9c 373d 48bb 37bc 466a de3c
00000180: 6d92 05bd 1c68 543d 4344 213d 171e 2b3d
00000190: 4468 db3c 46bd 45bd f4e1 903d 3861 da3b
000001a0: 8d6d e3bc 6527 debc ba5a 1dbc c45f 763d
000001b0: deaf 4e3c 4f0f 94bd 895f b33d 7268 5fbd
000001c0: fbe8 80bc 4743 6b3d 0d86 a03c 5156 e83c
000001d0: 2446 32bd 72ed 4fbc c192 2abb c4b3 813b
000001e0: 62a7 56bb d938 d43c 68c9 923c dcc0 b03c
000001f0: 5bca adbd 7cb4 c33c 2e1c ff3d 09e5 d2bc
00000200: 5016 9fbc d6fa 283d 9292 80bc b3a3 eabc
00000210: 0f45 debb 71de 8dbd 3e5f eb3c 786f 8f3d
00000220: eeee 3f3d 7b15 abbb acf7 b63c 6144 253d
00000230: 1a53 6c3d 0ec2 423c 37e4 dcbc bd38 84bd
00000240: 89d8 153d 43fe 04bc 9fba 843d a035 483d
00000250: 4972 a43c 766b aabc 1dcf 613d 64ff 473d
00000260: f7e6 443a d6ce 8a3c 2b2e 9e3c 7344 93b9
00000270: de61 99bd bb54 cebc 3317 a6bd ed36 003d
00000280: d13b 70bd d560 f53a 89ff c73c 9f49 223c
00000290: e50c 9b3c 40fa e53c 4b3b 1b3c 525c 063c
000002a0: 330e bf3d 597d bf3d 658d c7bc bef7 703d
000002b0: 15d4 5cbc e07b e53c 675c e0bb 2e7d 5d3d
000002c0: 04d3 163e d9fd 13bc f006 16bc 77b6 8cbc
000002d0: 83f4 9cbc 1825 1ebb 8a60 46bb 62f7 3bbc
000002e0: 04df 6c3d dd97 823d eeff 023d d370 a43a
000002f0: 2637 243d 3a00 bf3c b585 80bc 2668 bf3c
00000300: 1b44 433c a6ad 853c d85b 3ebd 631d 49bd
00000310: 0abb 443d f2d5 293c 709f f73c 182a 39bd
00000320: 036a 673d 9d1f d83c 185b 26bd 1671 b63c
00000330: d13e d13c 16a1 62bd ee90 fe3c 0c47 92ba
00000340: 74ce 82bc c66a 20bd 0204 583c 69aa 4cbd
00000350: b038 13bd 5865 a6bb 52b6 e43d bac1 303d
00000360: ef8b 24bb 454a a73d aa0f 283d 2a8c 53bc
00000370: c4cc 76bc 69f4 893c 91ed f13a 7f39 f73c
00000380: f552 ad3b d46b 16bd 38d3 4fbd f52c 29bd
00000390: ecd7 253d 605a 963b d774 a13b 014a b83b
000003a0: 8549 0f3c 5007 2cba 03bb 12bc c488 07be
000003b0: 057b e93b 4922 563c 951a 79bc 4bf9 943d
000003c0: 35b1 923d ecbb 28bd d2ee b33c aae0 813c
000003d0: 9bb1 973b 735a e43c 1d23 90bc 0be3 823d
000003e0: 97ba ea3c debd 893c d9d8 dabc 84fc 9f3c
000003f0: ae08 c13c 2120 413d 8459 a2bd 5f24 cfbb
-0.026330419 0.029101264 0.021035919 0.059093326 0.0081616705 0.026415406 0.09444037 0.0018484675
0.051061343 -0.04156433 0.028550604 -0.04813638 0.018927583 0.008603266 -0.005848431 0.029187104
0.044598572 0.06286206 -0.07703917 0.026020011 0.0044682277 0.055714134 0.013122464 -0.01654853
0.05074015 -0.05024397 -0.04613668 0.015872838 0.0075049154 -0.03491537 -0.049501225 0.06771915
0.07422 -0.04368976 0.0424674 0.06269226 0.0047408575 0.009476604 -0.0045223753 0.073352605
-0.01170036 0.0036605427 0.058942873 0.057490394 0.04628873 -0.014446651 0.027733324 -0.06697427
0.004284264 -0.015502502 0.028124474 0.016370533 0.08363629 0.03160278 0.024994044 -0.01414402
0.0010397112 0.038443584 0.033352807 0.056547865 0.0837121 0.004943392 0.030293252 0.035272487
0.043483667 0.041152988 0.04188307 0.024722658 0.025595449 -0.0055339783 0.09322837 -0.0037853608
0.049144052 0.045538127 0.018582502 0.025713075 0.06416122 0.05828394 0.004105292 0.015128497
0.123027526 -0.069667466 0.04477555 0.048888993 0.051209338 -0.08211735 0.085637525 0.05132844
0.00044831674 0.04411144 0.030719236 0.046060856 0.02987592 0.044826783 -0.011214085 0.027150284
-0.032610346 0.0518571 0.03937174 0.041776743 0.026783116 -0.04827621 0.07074347 0.0066644214
-0.027762199 -0.027118394 -0.00960415 0.060149923 0.012615172 -0.072294824 0.08758456 -0.054542966
-0.015736094 0.057437208 0.01959517 0.028361471 -0.043523923 -0.012690889 -0.0026027414 0.0039581973
-0.0032753577 0.025906013 0.017918304 0.021576338 -0.08485862 0.023889773 0.12456547 -0.025743978
-0.01941982 0.04125484 -0.01569489 -0.028642511 -0.006783135 -0.06927193 0.028731938 0.07003683
0.04685872 -0.0052210665 0.022334896 0.040348414 0.05769644 0.011887087 -0.02696429 -0.064561345
0.036583457 -0.008117261 0.06480908 0.048879266 0.020074027 -0.020803194 0.05512916 0.048827544
0.0007511223 0.01694433 0.019309124 -0.00028089024 -0.0748937 -0.025186887 -0.08109894 0.03130238
-0.058650795 0.0018720875 0.02441384 0.009905248 0.018927047 0.02807343 0.009474586 0.008200722
0.0932888 0.0935008 -0.024359414 0.058830015 -0.013478299 0.02801317 -0.0068469527 0.05407446
0.14728934 -0.00903269 -0.0091569275 -0.01717685 -0.019159561 -0.0024130996 -0.0030269944 -0.011472555
0.05782987 0.06376622 0.031982355 0.0012545831 0.040091656 0.023315538 -0.015688756 0.023365092
0.011918093 0.016318154 -0.046474308 -0.04910029 0.048029937 0.01036595 0.030227393 -0.04520616
0.056497585 0.026382262 -0.040614218 0.02227072 0.025542649 -0.055329405 0.031074967 -0.001116009
-0.015967585 -0.039164327 0.013184549 -0.049967203 -0.035942733 -0.005077999 0.11167587 0.043153502
-0.002510782 0.08168463 0.041030563 -0.012911836 -0.015063468 0.016840177 0.0018457641 0.030178783
0.0052894303 -0.036723927 -0.050738543 -0.04130264 0.040489122 0.0045884103 0.0049272585 0.0056240563
0.008745556 -0.0006562369 -0.00895572 -0.13235766 0.007125261 0.013069698 -0.015204092 0.07274111
0.07162706 -0.04119484 0.021964464 0.015854198 0.0046293265 0.02787516 -0.017594868 0.06390961
0.028653426 0.016814169 -0.02671473 0.019529589 0.02356371 0.04714978 -0.0792723 -0.0063214744
