main/REINVENT_SELFIES/data/logs/init_weight_GRU_layer_2_w_hh.npy (npy, 32896 bytes, 1 tensors)

array f4 [16, 512]
0	0x3e9079f1	0.28218034
1	0x3d5ba3f0	0.05362314
2	0x3e277a19	0.1635517
3	0x3e672d94	0.2257598
4	0x3d172da1	0.03690875
5	0x3c644444	0.013932291
6	0xbc834358	-0.016023323
7	0x3d4712c3	0.048601877
8	0xbcc9d965	-0.024639795
9	0x3d2f3679	0.04277656
10	0xbd9de0d8	-0.07708901
11	0x3e01f265	0.12690122
12	0x3d0a07c8	0.033698827
13	0x3e38b84c	0.18039054
14	0xbdd99710	-0.10624516
15	0xbb09ccba	-0.0021026568
16	0xbd4e6127	-0.05038562
17	0xbdb599a6	-0.08867197
18	0x3c892004	0.016738899
19	0xbd17a7eb	-0.037025373
20	0xbe2956b3	-0.1653698
21	0xbdf15234	-0.11783257
22	0xbd100c78	-0.03516814
23	0xbe3c8fad	-0.18414183
24	0x3cc3797f	0.023861645
25	0x3e2f85bf	0.17140864
26	0x3d8ec412	0.06970991
27	0xbda0084b	-0.07814082
28	0xbe65856f	-0.22414182
29	0xba828db8	-0.0009960448
30	0xbe00fc65	-0.12596281
31	0x3d751f01	0.05984402
32	0x3d47b664	0.048757926
33	0xbd08905d	-0.0333408
34	0xbd83df9a	-0.06439133
35	0xbd94c2c4	-0.07263711
36	0x3d3a92a3	0.04555
37	0x3d7436c9	0.05962256
38	0x3bc88e7c	0.006120501
39	0x3dad14ee	0.08451258
40	0x3c4e783e	0.01260191
41	0x3da86a17	0.0822336
42	0xbdc5a64b	-0.096508585
43	0xbdd476d5	-0.10374228
44	0x3e13c9e8	0.1443249
45	0xbdb99038	-0.09060711
46	0x3e2101f2	0.15723398
47	0x3cfa5191	0.030556472
48	0xbd5d9987	-0.054101493
49	0x3d536513	0.051610064
50	0x3d79eb9d	0.061015714
51	0x3daa09d4	0.08302656
52	0xbd98c988	-0.07460314
53	0x3d0c3b51	0.034236256
54	0xbd0cfdaa	-0.0344216
55	0xbc7bfb5d	-0.015379754
56	0xbbe8e09d	-0.007106854
57	0x3d5509cc	0.052011296
58	0xbdbabff1	-0.09118641
59	0xbd87a298	-0.06622809
60	0xbdec719c	-0.11545107
61	0xbd72fe35	-0.059324462
62	0xbd4519ba	-0.048120238
63	0xbd8439ea	-0.06456359
64	0xbdc00811	-0.093765385
65	0xbd4abac7	-0.04949453
66	0xbe3d4f67	-0.18487321
67	0xbcf529bb	-0.029927125
68	0xbd51ef16	-0.0512534
69	0x3c091569	0.008366921
70	0x3e0a0f2e	0.13482353
71	0xbd45b8e6	-0.048272036
72	0x3d95df1a	0.07317944
73	0x3e1484c4	0.14503771
74	0xbe59fe7e	-0.21288487
75	0xbd5e1b27	-0.054225113
76	0xbd946737	-0.07246249
77	0x3dd83edf	0.10558867
78	0xbe21fa4d	-0.15818138
79	0xbb8cb5c7	-0.0042941305
80	0xbbe0b9ac	-0.0068580713
81	0xbc8f6725	-0.017505238
82	0x3e0dc8a0	0.13846064
83	0x3d79b43c	0.0609629
84	0xbabf0b10	-0.001457544
85	0x3c99966f	0.01874849
86	0xbdb9394d	-0.090441324
87	0xbda35c99	-0.07976646
88	0xbd3c5758	-0.045981735
89	0xbe3ba792	-0.18325642
90	0x3d106f1c	0.035262212
91	0xbbf0ee1d	-0.007352604
92	0x3d8e5075	0.0694894
93	0xbcdfe39f	-0.027330218
94	0xbd7be3bb	-0.061496478
95	0x3d9e246f	0.07721793
96	0x3d67ad86	0.05656197
97	0x3d12a770	0.035804212
98	0x3c23971d	0.009984759
99	0xbd6041a4	-0.0547501
100	0xbdce3b36	-0.10069887
101	0x3e1f8fd1	0.15582205
102	0x3c509d0c	0.012732755
103	0x3d74276d	0.05960791
104	0xbe50dfc4	-0.2039786
105	0xbdd71f26	-0.10503988
106	0x3e27c481	0.16383554
107	0xbcdce1ca	-0.026963133
108	0x3e050962	0.1299186
109	0xbd9e4c57	-0.077294044
110	0xbdab1214	-0.083530575
111	0xbd7fca65	-0.062448878
112	0xbd58988d	-0.05287986
113	0xbd618891	-0.05506188
114	0xbd5ec9c5	-0.05439164
115	0x3d3575dc	0.044301853
116	0xbd66d972	-0.056359716
117	0xbd9b2578	-0.07575506
118	0x3da9bb4e	0.08287679
119	0xbe277cdf	-0.16356228
120	0xbd8cf7e2	-0.068832174
121	0xbc3fcf2d	-0.011707109
122	0x3c0770f3	0.008266675
123	0xbd045483	-0.03230716
124	0xbdba5bd1	-0.09099544
125	0x3dae5c18	0.08513659
126	0xbc7627d9	-0.015024149
127	0xbc38b1c9	-0.011272856
128	0xbb42f669	-0.0029748923
129	0xbdc155aa	-0.09440167
130	0xbd89a4cb	-0.06720885
131	0xbc50593e	-0.0127165895
132	0xbbc868fb	-0.0061160303
133	0x3cbaa1d9	0.022782253
134	0x3db20b49	0.08693559
135	0xbd8b6bf2	-0.06807698
136	0xbe3b09fa	-0.18265525
137	0x3c706c72	0.014674293
138	0x3d365fb5	0.044524867
139	0xbd45c3ba	-0.048282363
140	0xbd19b648	-0.037527353
141	0x3d17e7a5	0.037086148
142	0xbd9448e2	-0.07240464
143	0x3d2188c8	0.039437085
144	0x3e1a2bbd	0.15055747
145	0x3d312e4d	0.043257046
146	0x3d881cad	0.066460945
147	0x3d1b426c	0.03790514
148	0xbc73a3ab	-0.014870564
149	0x3deb8049	0.11499078
150	0xbd078537	-0.033086028
151	0x3dc417ae	0.09574829
152	0x3d4d4ae9	0.050120268
153	0x3d39354e	0.04521685
154	0xbd335a00	-0.043787003
155	0xbd933311	-0.071874745
156	0x3b8e1637	0.0043361443
157	0x3a88f748	0.0010449672
158	0x3a02c5aa	0.00049885607
159	0x3d4a5de8	0.049405962
160	0x3d38c8b3	0.045113277
161	0xbd333f72	-0.043761678
162	0xbd292f3b	-0.041304808
163	0xbd559d5b	-0.05215202
164	0x3dc37e8d	0.09545622
165	0xbd879af5	-0.066213526
166	0xbcd88162	-0.026428882
167	0x3dbf531b	0.09342023
168	0x3c83389f	0.01601821
169	0xbcb37cbe	-0.021910068
170	0xbd8785bd	-0.066173054
171	0xbc03d71b	-0.008046891
172	0xbdd69b07	-0.10478788
173	0xbe5a73ea	-0.2133328
174	0x3e09523e	0.13410279
175	0xbdc894a8	-0.09793979
176	0xbb3e2d73	-0.002901879
177	0xbd95856f	-0.07300841
178	0x3cedc27e	0.029023405
179	0x3d1cd47b	0.038288575
180	0x3d84498b	0.0645934
181	0xbd505bbd	-0.05086874
182	0xbc1a79bd	-0.009428439
183	0x3e3759f4	0.17905408
184	0xbd286aed	-0.041117597
185	0xbde12f11	-0.10995305
186	0xbe2eeebb	-0.17083256
187	0xbd5de88d	-0.054176856
188	0xbd0b3cca	-0.03399352
189	0x3e601a45	0.21885021
190	0xbc3b5996	-0.011434933
191	0xbda6875f	-0.08131289
192	0x3db4cebc	0.08828494
193	0xbe0c4e02	-0.13701633
194	0x3e2d3ad7	0.16916977
195	0xbce58ace	-0.028020289
196	0x3db7dcf6	0.08977692
197	0xbc1d3eb3	-0.009597468
198	0x3d87a6cb	0.0662361
199	0xbdc8f83d	-0.09812973
200	0xbc8a57b7	-0.016887529
201	0x3dd4fe30	0.10400045
202	0xbddd4bee	-0.10805498
203	0xbbaf1a58	-0.0053437166
204	0x3ce552f1	0.027993651
205	0xbd727ae5	-0.059199233
206	0x3dd17def	0.10229098
207	0xbdb0e6ca	-0.086377695
208	0x3e510fb7	0.20416151
209	0xbd190643	-0.037359487
210	0x3c9777b8	0.018489704
211	0xbbb8875a	-0.0056313695
212	0x3c7816ae	0.015142126
213	0xbd14e148	-0.036347657
214	0x3ce48e79	0.027899968
215	0xbd2b64c5	-0.04184415
216	0xbc81ddb6	-0.01585279
217	0xbbba6f62	-0.0056895474
218	0x3e016e6b	0.12639777
219	0x3bfee6ba	0.0077789696
220	0xbe462ef8	-0.19353855
221	0xbe078d58	-0.13237512
222	0x3cdcfded	0.02697655
223	0xbde4cc85	-0.111718215
224	0xbd53073f	-0.051520582
225	0xbce5f36a	-0.02807017
226	0x3c3fc6c7	0.011705107
227	0x3d9d1464	0.07669905
228	0x3d9990b9	0.07498307
229	0x3df91ad9	0.12163324
230	0x3dcb165a	0.099163726
231	0xb96b01d4	-0.00022412027
232	0x3ddaa123	0.10675266
233	0xbd44b515	-0.048024256
234	0x3d85d748	0.06535202
235	0x3e16e720	0.14736605
236	0xbd7fe216	-0.06247147
237	0xbd07b82d	-0.033134628
238	0x3e2c1816	0.16806063
239	0x3de5dcc7	0.112237506
240	0x3d08b987	0.033380058
241	0x3dd698e4	0.1047838
242	0x3cb2fcb0	0.021849006
243	0x3e45d562	0.1931968
244	0x3d8af997	0.06785887
245	0xbda0cc78	-0.07851499
246	0xbdae48d8	-0.085099876
247	0xbd0b1f9f	-0.033965703
248	0x3b8fc935	0.0043879994
249	0x3d9a8811	0.07545484
250	0x3c6c91df	0.014439075
251	0xbe0f954b	-0.14021794
252	0x3e4ce52b	0.20009296
253	0x3acc527c	0.0015588547
254	0x3d09c5b2	0.033635803
255	0xbd12c026	-0.03582778
