main/REINVENT_SELFIES/data/logs/weight_GRU_layer_2_b_hh.npy (npy, 6272 bytes, 1 tensors)

array f4 [1, 1536]
000000 a8 57 ef bc 2d 72 51 3c 09 ee 93 3c 06 62 09 3d
       -0.029216602 0.012783569 0.01805784 0.033540748
000010 f4 f4 c2 3c c9 75 db 3c 44 c5 ca 3d e3 9c 14 3c
       0.023798443 0.026789563 0.09900907 0.009070608
000020 7a 12 84 3d 1e 69 1f bd 21 58 14 3d 4f 96 3e bd
       0.064488366 -0.038918607 0.03621686 -0.046530064
000030 fb a6 23 bc ad 33 22 3c a4 79 5f 3c f5 ff 5b 3c
       -0.009988542 0.009900016 0.013639841 0.013427724
000040 68 9e 57 3d c0 48 7f 3d ff ef 97 bd 97 5e d6 3c
       0.052641302 0.06232524 -0.074188225 0.02616815
000050 b3 f2 b0 3c c1 d8 80 3d dd 0d c7 3c c8 d0 e3 bb
       0.021600103 0.062913425 0.024298603 -0.006952379
000060 a1 92 92 3d 6a 6a 57 bd 47 b0 66 bd 31 2d 15 3c
       0.071568735 -0.05259172 -0.056320455 0.009105013
000070 07 16 c2 38 06 db f4 bc 33 d6 5a bd 70 98 b0 3d
       9.254744e-05 -0.029889595 -0.053426933 0.08622825
000080 87 29 aa 3d 1b 2d e0 bc a6 73 3b 3d 0b aa 8f 3d
       0.08308702 -0.027365258 0.045764588 0.07014855
000090 9e cc fb b9 33 cb b7 3c 64 cd 03 bc ac d5 95 3d
       -0.00048026902 0.02243576 -0.008044574 0.07316145
0000a0 cc 54 79 bc a2 cd 85 3c c4 a2 57 3d e5 f7 88 3d
       -0.015217971 0.016333405 0.05264546 0.06687907
0000b0 05 3e 14 3d ad af f5 bc 06 73 75 3c 9a 3f 82 bd
       0.03619196 -0.029990995 0.014981037 -0.06359787
0000c0 2a 53 ab 3c 88 24 aa bc f2 06 91 3c 2b 33 b4 3c
       0.02091368 -0.020769373 0.017703507 0.021997055
0000d0 a2 7e 9a 3d 6c 27 20 3c 66 32 27 3c 0f 59 70 bc
       0.075436845 0.009775024 0.010204887 -0.014669671
0000e0 34 ef 4a 3b 09 04 36 3d f7 88 1a 3d b3 9c 59 3d
       0.003096533 0.044437442 0.037728276 0.053127956
0000f0 88 49 b4 3d 3b 6c 9c 3c 77 a6 67 3c ad b7 41 3d
       0.088030875 0.019094577 0.014138809 0.047294308
000100 e6 2e 5d 3d ea ed 36 3d 03 16 0a 3d dd 53 0a 3d
       0.053999804 0.044660486 0.0337124 0.033771385
000110 1e 37 49 3d ec ef 23 bc 4c b2 cd 3d 06 1d 80 3c
       0.04912483 -0.010005932 0.10043773 0.01563884
000120 72 0c 66 3d 6b 0b 87 3d db fa a7 3c 68 6f 9c 3c
       0.056164213 0.06593975 0.02050536 0.019096091
000130 3c 23 3c 3d 67 2e 3a 3d 3b c0 51 bb 88 8f c7 3c
       0.04593204 0.04545441 -0.0032005447 0.024360433
000140 c8 d2 f4 3d 1a 5b ba bd 45 fc 11 3d f8 da 6b 3d
       0.11954266 -0.090994075 0.035640974 0.05758187
000150 80 72 22 3d 54 86 a8 bd ab ef bf 3d 3e 5a 77 3d
       0.039659977 -0.08228746 0.09371885 0.060388796
000160 67 67 74 3b 4f 75 52 3d dd 32 af 3a ff 3c 49 3d
       0.0037293078 0.051381405 0.0013366599 0.049130436
000170 db 45 0d 3d d9 e7 78 3d e4 56 b0 bb f1 5d dd 3c
       0.034490447 0.060767982 -0.005381452 0.027022334
000180 5b 59 fd bc c5 35 fa 3c 93 a2 28 3d 52 35 df 3c
       -0.030926397 0.030543217 0.041170668 0.027247105
000190 bb b9 ff 3c 7a 1e 2f bd 38 1c 8b 3d 37 40 9d 3c
       0.031216493 -0.042753674 0.06792492 0.01919566
0001a0 d3 1b 09 bc 97 24 84 bc 49 5b 00 3c aa 47 8a 3d
       -0.00836845 -0.016130729 0.007834264 0.0675195
0001b0 74 7d f8 39 51 27 87 bd ea e8 b6 3d 76 b9 78 bd
       0.00047395716 -0.06599296 0.089311436 -0.060723744
0001c0 16 0e e5 bc 14 18 6a 3d 71 7f c8 3b f7 97 d2 3c
       -0.027960818 0.05715187 0.006118708 0.025707228
0001d0 0b 57 4c bd e1 e0 b7 bc b4 b3 38 bb 12 60 0c bc
       -0.0498877 -0.022446098 -0.0028183283 -0.008567827
0001e0 6b e7 43 bb 2e 53 7d 3c bc 5c a4 3c 23 d1 d8 3c
       -0.0029892575 0.015461726 0.02006375 0.026466912
0001f0 a8 d9 93 bd d6 9c 0f bb 98 6f 06 3e cc e8 c9 bc
       -0.07219249 -0.002191355 0.13128507 -0.024647139
000200 02 be a4 bc a3 4e 42 3d 52 43 18 bc 98 2e 52 bc
       -0.020110134 0.047438275 -0.009293394 -0.012828492
000210 85 9e ad 39 25 66 8d bd ef 5b 98 3c ca 1a 94 3d
       0.00033115238 -0.06904248 0.018598525 0.07231672
000220 50 28 3f 3d ff ec a2 bc 71 b8 9c 3c 07 e6 52 3d
       0.046669304 -0.0198884 0.019130917 0.051488902
000230 ec 15 53 3d ce 90 66 3c 1d 8a e5 bc 28 10 a6 bd
       0.05153458 0.01407261 -0.02801996 -0.0810855
000240 01 cc 1e 3d a2 13 9e bc 63 cc 96 3d 06 93 58 3d
       0.038768772 -0.019296471 0.073632024 0.052874587
000250 a7 3a 6a 3c 2c cb e2 bc 7f 20 48 3d 96 aa 50 3d
       0.01429621 -0.02768477 0.048859116 0.050943933
000260 b3 52 f0 3a 91 ab 9f 3c a8 56 83 3c 17 3f 2b bc
       0.0018335193 0.019490989 0.016032532 -0.0104520535
000270 b5 05 a4 bd f9 27 c6 bc 00 5e c4 bd 2d 8c 91 3c
       -0.08008901 -0.024188982 -0.095882416 0.017767036
000280 f2 ad 32 bd 9f 3f 03 bc bf a5 b0 3c 9b 75 2c 3c
       -0.04362292 -0.008010774 0.021563409 0.010526086
000290 cf 4e 0a 3d 0d 96 15 3d f6 03 03 bb ac 06 81 3c
       0.033766564 0.036520053 -0.0019991375 0.015750252
0002a0 a2 70 e5 3d de b2 b8 3d d5 c3 51 bc 62 28 8d 3d
       0.11203124 0.09018491 -0.012803038 0.06892468
0002b0 20 3d 40 bc e4 98 0e 3d 63 22 0e bc 18 0f 7e 3d
       -0.011733323 0.034813777 -0.008675191 0.062026113
0002c0 4b 8a 21 3e 63 47 8d bc f4 31 fb bb 44 eb ee bc
       0.15775411 -0.017245954 -0.007665867 -0.029164918
0002d0 5f 90 d0 bc 72 c6 4b bc d5 7c f3 bb 83 d5 04 bc
       -0.025459467 -0.01243745 -0.0074306526 -0.008107546
0002e0 e5 fe 7e 3d 8b ae 93 3d 2f 4b 0c 3d 5f 1b 96 bb
       0.062254805 0.07211026 0.03425139 -0.0045808996
0002f0 75 7a 23 3d cd d5 03 3c 23 2b 5f bc 3f 8b 94 3c
       0.039911706 0.00804658 -0.013621124 0.018132804
000300 ef 22 54 3c 1b 0e 2c 3c 48 79 36 bd 20 ba 3d bd
       0.012947782 0.01050141 -0.044549257 -0.04632008
000310 e4 cc 6f 3d 6f 31 85 3c e8 e4 38 3d c9 76 48 bd
       0.05854501 0.016258923 0.045140177 -0.048941407
000320 ba b2 80 3d b0 03 f3 3c 9c 6a 52 bd 9c df ac 3c
       0.062840894 0.029664844 -0.051371202 0.021102719
000330 3d a5 35 3d 8a cb 75 bd e3 2b 01 3d 16 28 8f bc
       0.044347037 -0.060008563 0.031535994 -0.01747517
000340 44 84 a8 bc e2 84 05 bd 37 eb cd b9 2a b1 31 bd
       -0.020570882 -0.03259743 -0.00039275896 -0.043381847
000350 0f 23 29 bd bd 66 0a bc d7 ce d9 3d 19 03 2e 3d
       -0.0412932 -0.008447346 0.10635155 0.042483423
000360 9c f2 b1 3b c2 eb ad 3d dc 6f 31 3d f8 61 78 bc
       0.0054305326 0.08492233 0.043319568 -0.015160076
000370 7b 51 fd bc 77 7f c2 3c 6c 22 58 bb 2f 96 ec 3c
       -0.030922642 0.02374242 -0.0032979501 0.028880207
000380 1e 84 5b 3a 39 7a 03 bd 75 81 4b bd 3b 02 30 bd
       0.0008373874 -0.032098982 -0.049684007 -0.042970877
000390 7d bf 23 3d 39 dc d3 3b 8b e9 b2 3c 34 32 91 3c
       0.03997754 0.0064654616 0.021839878 0.017724134
0003a0 58 63 df 3b bf f8 96 3b bb ae 23 3a 15 6f 04 be
       0.0068172626 0.0046072896 0.00062439934 -0.12933
0003b0 01 5b 4a 3c 1a 9f 82 38 38 68 5d bc d5 d4 9d 3d
       0.012350799 6.228518e-05 -0.013513617 0.0770661
0003c0 04 61 9c 3d 48 d5 39 bd d8 17 83 3b 14 b2 50 3c
       0.07635692 -0.045369416 0.004000645 0.01273777
0003d0 55 5e 28 3c e8 8d a9 3c ae a1 57 ba 04 1a 91 3d
       0.010276397 0.020697549 -0.0008225691 0.0708504
0003e0 89 f0 bf 3c 7e 30 c9 3c d2 89 c9 bc 0e 5a d6 b9
       0.023430126 0.024559256 -0.02460185 -0.00040884357
0003f0 6e c7 cb 3c 56 5a 78 3d a8 22 a1 bd 50 a5 01 3c
       0.024875369 0.060633026 -0.07867938 0.007912949
