main/REINVENT_SELFIES/data/logs/weight_GRU_layer_2_b_ih.npy (npy, 6272 bytes, 1 tensors)

array f4 [1, 1536]
0	0xbb3912c9	-0.0028239957
1	0x3d18b543	0.03728224
2	0xbd3e25fc	-0.046422943
3	0x3ce6f95d	0.028195078
4	0xbc6c82b9	-0.014435464
5	0x3d03fbcd	0.032222558
6	0x3dbc0144	0.09179929
7	0x3d31faf6	0.043452226
8	0x3bdd689d	0.0067568556
9	0xbd452ab3	-0.048136424
10	0xbcf72d25	-0.030172894
11	0xbd1a1530	-0.037617862
12	0xbd0b7e3a	-0.034055926
13	0x3d3081d2	0.043092556
14	0xbcce2f7b	-0.025169125
15	0x3cb4bb54	0.022061981
16	0x3ce2f516	0.027704757
17	0xbc9d6aba	-0.01921593
18	0xbd63efb3	-0.055648517
19	0x3c75f957	0.0150130605
20	0x3c9fe1b6	0.019516807
21	0x3d9fbed6	0.07800071
22	0x3dc4e1db	0.09613391
23	0x3c1d9eac	0.00962035
24	0x3d692094	0.056915835
25	0x3bf5d4b1	0.0075021614
26	0xbd0f1884	-0.03493549
27	0x3db52522	0.08844973
28	0x3d36660b	0.04453091
29	0xbd0e059d	-0.034673322
30	0xbd2c1d28	-0.042019993
31	0x3dbd380d	0.092392065
32	0xbae2fb9d	-0.0017317418
33	0x3c70981e	0.014684705
34	0xbb8972e7	-0.0041946056
35	0x3c949879	0.01813911
36	0xbc6584cd	-0.014008713
37	0x3d83bb01	0.064321525
38	0xbc92a2ea	-0.01789995
39	0x3dc80e2a	0.097683266
40	0xbd1b104a	-0.03785733
41	0x3d126d22	0.03574861
42	0x3d3cb23b	0.04606841
43	0x3d25bac6	0.040461324
44	0xb9eee672	-0.00045566593
45	0xbbd33ba6	-0.0064463196
46	0xbcbb9861	-0.022899808
47	0xbd119071	-0.03553814
48	0x3c9b1c42	0.018934373
49	0xbc745271	-0.014912234
50	0xbc51f26d	-0.0128141465
51	0x3da056ea	0.078290775
52	0x3dbc652b	0.09198984
53	0xbcc7467d	-0.024325604
54	0xbce7c5a8	-0.028292492
55	0xbbe400a8	-0.006958086
56	0x3c424f0f	0.011859669
57	0x3c29b1a8	0.010357298
58	0x3d7ee296	0.062227808
59	0x3dd498a1	0.10380674
60	0x3d93b02b	0.07211336
61	0x3d5140f4	0.051087335
62	0xbd0a4143	-0.033753645
63	0x3d8ad1ec	0.06778321
64	0x3de60c8b	0.11232861
65	0x3cf07a4f	0.029355196
66	0x3cec2eec	0.028830968
67	0x3d8ae635	0.0678219
68	0xbb347fec	-0.0027542068
69	0x3c910b30	0.01770553
70	0x3dc0dba3	0.094168924
71	0x3ced10e5	0.02893872
72	0x3d2e9dd9	0.042631004
73	0x3da95b47	0.08269363
74	0x3cae69f1	0.021290751
75	0xbc3b7ab9	-0.011442834
76	0x3c179c2a	0.009253541
77	0x3d721d82	0.059110172
78	0xbc788fe2	-0.015171023
79	0x3d548235	0.051881988
80	0x3db7f53a	0.0898232
81	0xbce02746	-0.027362477
82	0xbcfd0c40	-0.03088963
83	0x3cde589c	0.027141862
84	0x3d00c323	0.031436097
85	0xbd8a451c	-0.06751463
86	0x3d199b82	0.03750182
87	0x3d810821	0.063003786
88	0x3b999886	0.0046873717
89	0x3d66ac82	0.05631686
90	0xbc0319c4	-0.0080017485
91	0x3d31344e	0.043262772
92	0x3d50f3d6	0.05101379
93	0x3d950281	0.07275868
94	0x3d284f91	0.041091505
95	0x3c679bad	0.014136237
96	0xbd52d139	-0.05146906
97	0x3d85ab97	0.06526869
98	0x3c817056	0.015800636
99	0x3d244690	0.040106356
100	0xbbe3ed30	-0.006955765
101	0xbcd65f1f	-0.026168404
102	0xbc7ad5be	-0.015309749
103	0x3d041309	0.032244716
104	0x3c92ba4f	0.017911104
105	0xbca3111c	-0.01990562
106	0xbc6a0262	-0.014282795
107	0x3d12831d	0.03576957
108	0x3d285014	0.041091993
109	0x3b41a6f7	0.0029548982
110	0x3dc9b2d9	0.098485656
111	0xbdc80cf7	-0.09768098
112	0xbd2c0442	-0.041996248
113	0xbb917572	-0.0044390494
114	0xbd7d1e76	-0.061796628
115	0xbc1a39ab	-0.009413163
116	0xbdb7514f	-0.08951055
117	0x3c3095d9	0.010777914
118	0x3d845e16	0.06463258
119	0xbcacb85f	-0.021084009
120	0x3c13c7ef	0.009019836
121	0xbb16fef4	-0.0023040147
122	0x3a3da84b	0.00072348554
123	0x3d4de544	0.050267473
124	0xbd9503d0	-0.07276118
125	0xbd758330	-0.059939563
126	0x3e13f17c	0.14447588
127	0x3d6a4fab	0.057204884
128	0xbd2ce90e	-0.042214446
129	0x3d467279	0.048449013
130	0xbc966051	-0.018356474
131	0xbd15860d	-0.036504794
132	0x3da2cee0	0.079496145
133	0xbd3b3dcd	-0.045713235
134	0xbb35742d	-0.0027687654
135	0x3d14bb47	0.036311414
136	0x3d5e3c6d	0.054256845
137	0x3d03074f	0.031989392
138	0xbc5dfee5	-0.013549541
139	0x3ca6b2e6	0.020348977
140	0x3ddabed0	0.10680926
141	0x3db6bc09	0.089225836
142	0xbd6fc6ba	-0.05853913
143	0xbdb1f5e8	-0.08689481
144	0x3d9757ab	0.07389768
145	0x3d119aca	0.03554801
146	0x3ceb95cb	0.02875795
147	0x3a343f46	0.00068758836
148	0x3d474eaa	0.048659004
149	0xbd102f17	-0.03520116
150	0xbc300736	-0.010743907
151	0x3d4737d9	0.048637245
152	0xbd0a6c52	-0.03379471
153	0xbd4a2d77	-0.049359765
154	0xbc06993b	-0.008215244
155	0x3c9cc2c9	0.01913585
156	0xbd010576	-0.03149935
157	0x3cd29670	0.0257065
158	0xbd7155e1	-0.05891979
159	0x3c473eb0	0.012160942
160	0xbd087dde	-0.03332316
161	0xbd48888c	-0.048958346
162	0xbc91d5a9	-0.017802076
163	0xbc897bf8	-0.016782746
164	0x3ddecad4	0.1087853
165	0x3cffe591	0.031237395
166	0xbab0cd0c	-0.0013488843
167	0xbc9ae144	-0.018906243
168	0x3db19f27	0.08672934
169	0x3d2cbb82	0.04217101
170	0x3c8ae769	0.016956048
171	0x3d86d101	0.06582833
172	0x3cdf84c7	0.027284993
173	0x3aa78ccc	0.001278305
174	0x3c767453	0.015042382
175	0xbc1b61c9	-0.009483763
176	0x3e254675	0.16140158
177	0x3c7e5084	0.015522126
178	0xbcd9456f	-0.026522366
179	0xbd7b8a88	-0.06141141
180	0xbc694f9f	-0.014240175
181	0x3cf318a0	0.029674828
182	0xbd954fbd	-0.072905995
183	0xbc364f6e	-0.011127336
184	0x3d5eea3a	0.054422595
185	0x3dad2501	0.084543236
186	0xbbe8aee8	-0.0071009286
187	0xbc9812d2	-0.018563662
188	0x3d1c6fc8	0.03819254
189	0x3d52cb77	0.05146357
190	0xbcf27be9	-0.0296001
191	0xbd0e2c0b	-0.03470997
192	0xbd7a469f	-0.061102506
193	0x3d194b56	0.03742536
194	0xbc140385	-0.009034042
195	0xbb6bdc72	-0.003598955
196	0x3d0e510e	0.03474527
197	0x3d0b03d0	0.033939183
198	0x3c89fea1	0.01684505
199	0xbc6b1a94	-0.014349598
200	0x3dcd17fb	0.100143395
201	0x3d5d6080	0.054047108
202	0xbd1f26d5	-0.038855392
203	0xbc123dd7	-0.008925877
204	0x3dd1117c	0.10208413
205	0xbd5aa8ce	-0.05338364
206	0x3d43b6dd	0.047781814
207	0x3d167c15	0.036739428
208	0x3c921d3c	0.017836206
209	0xbd74c62b	-0.0597593
210	0x3c79d4d0	0.015248492
211	0xbc27417c	-0.010208484
212	0xbd277cee	-0.040890627
213	0xbc8ce48d	-0.017198825
214	0x3da99d18	0.082819164
215	0xbb545fb3	-0.0032405674
216	0x3d71c66c	0.05902712
217	0x3d6d54f2	0.05794234
218	0x3d827667	0.0637024
219	0x3c1c0a71	0.009523974
220	0x3ce815e4	0.02833075
221	0xbcb85b71	-0.02250454
222	0x3c03a9b1	0.008036063
223	0x3bbe5e49	0.0058095795
224	0xbcb73841	-0.022365691
225	0xbd8ece9c	-0.06973001
226	0x3cb9512d	0.022621715
227	0xbd8a541a	-0.06754322
228	0x3d412616	0.047155462
229	0xbd16e282	-0.03683711
230	0x3d950603	0.07276537
231	0xbc3fba68	-0.011702158
232	0x3cc6fcb8	0.024290428
233	0x3cdeb20f	0.027184514
234	0xba58e2f3	-0.0008273564
235	0xbd6ae0ea	-0.0573434
236	0xbca9d19f	-0.020729838
237	0x3c45e5be	0.012078701
238	0x3b2bb498	0.0026200172
239	0x3e046efa	0.12932959
240	0x3ce11da7	0.02747996
241	0xbc8fa248	-0.017533436
242	0xbc42a788	-0.011880763
243	0x3cc51a24	0.024060316
244	0x3c08ffe2	0.0083617885
245	0xbc2484fa	-0.01004147
246	0xbc1736f4	-0.00922941
247	0x3d3d6ab5	0.046244342
248	0x3c999acd	0.018750573
249	0x3d84d2fc	0.064855546
250	0xbd335aef	-0.043787893
251	0x3c90d5a4	0.017679997
252	0x3d06f615	0.032949526
253	0x3ca78093	0.020447051
254	0xbd6d62a8	-0.057955414
255	0x3c3639cd	0.011122179
