main/REINVENT_SELFIES/data/logs/weight_GRU_embedding.npy (npy, 1152 bytes, 1 tensors)

array f4 [2, 128]
0	0xbd9d743e	-0.07688187
1	0x3f4b04d1	0.79304224
2	0x3f1e1413	0.6174938
3	0xbf7b9f43	-0.9828989
4	0xbf19dae4	-0.60099626
5	0x3e8461e1	0.25855926
6	0x3d3ebd30	0.046567142
7	0x3ff51a6a	1.9148686
8	0xbe1720cd	-0.14758606
9	0x3fa9d94e	1.3269441
10	0xc0443726	-3.065866
11	0xc038c160	-2.8868027
12	0xbf0ff42d	-0.5623196
13	0x3fe490ba	1.7856667
14	0xbe9ad098	-0.3023727
15	0xbf682b09	-0.90690666
16	0xbfaa6e76	-1.331496
17	0xbfb40610	-1.406435
18	0xbf80339a	-1.0015748
19	0xbefeff28	-0.49804044
20	0xbf3390da	-0.701429
21	0xc02c4ca1	-2.692177
22	0xbf4e632a	-0.8062006
23	0xbfc108a8	-1.5080767
24	0xbe880f5b	-0.26574215
25	0xbf66a8b0	-0.90101147
26	0xbfaab0a1	-1.3335153
27	0x3f8763a1	1.0577279
28	0x3f7eb5fe	0.9949645
29	0x3f397263	0.72440165
30	0xc02d5082	-2.7080388
31	0xbf684b71	-0.90740114
32	0xbe77ea4c	-0.24210471
33	0xbf278f56	-0.6545309
34	0xbd05c9ed	-0.032663275
35	0x400f7150	2.241291
36	0x3e2814ce	0.16414186
37	0x3fbcadd1	1.4740545
38	0x3f453f2d	0.77049524
39	0x3f92a81e	1.1457555
40	0xbfbc7d5c	-1.4725757
41	0x3f589d91	0.8461543
42	0x3f7bf8aa	0.98426306
43	0x3e9fa5d3	0.311812
44	0xc00e59a4	-2.2242212
45	0xbf890098	-1.0703306
46	0x3f47f8e8	0.78114176
47	0xbf07c8d9	-0.53040844
48	0x3dc8a75d	0.09797547
49	0xbd028b6c	-0.031871244
50	0xbe8755be	-0.26432604
51	0xbefefaaf	-0.4980063
52	0xbf7346a6	-0.95029676
53	0xbe5be27b	-0.21473114
54	0xbf5a0fcd	-0.8518036
55	0xbf8e935e	-1.1138723
56	0x3dd08df5	0.10183326
57	0xbdb4e6f1	-0.08833111
58	0xbf1f43c0	-0.62212753
59	0x3f2a54fa	0.66535914
60	0x3f5782a7	0.84183735
61	0xbf97d6eb	-1.1862463
62	0x3ff1bd15	1.8885828
63	0xbf9d9da0	-1.2313728
64	0xbfd05244	-1.6275105
65	0xbf600f53	-0.8752338
66	0x3f85655f	1.0421561
67	0xbe687e40	-0.2270441
68	0x3fbc718f	1.4722155
69	0xbfdc7244	-1.7222371
70	0x4019d7a1	2.403786
71	0xbe8999cb	-0.26875147
72	0xc04f30da	-3.2373567
73	0xbfa04142	-1.2519915
74	0xbf52741a	-0.82208407
75	0xbf277667	-0.6541504
76	0xbf5bf442	-0.8591958
77	0xbf2245d7	-0.6338782
78	0x3e368bff	0.17826842
79	0x3fdfd74d	1.748758
80	0xbe1a5213	-0.15070371
81	0xbe8b39ec	-0.27192628
82	0x3f8ae225	1.0850264
83	0xbf6b44ed	-0.9190205
84	0x401b7566	2.4290404
85	0xbe81e353	-0.25368747
86	0x3e7f58cd	0.24936219
87	0xbf05b8c7	-0.5223507
88	0x3fde9f87	1.7392434
89	0xbf316288	-0.6929097
90	0x3f72072c	0.94542193
91	0xbf8a28e3	-1.0793728
92	0xbfdf2f26	-1.7436264
93	0xbfdababd	-1.7088238
94	0xbeea8c3c	-0.45810115
95	0xbf595941	-0.84901816
96	0xbfa3d41b	-1.2799104
97	0x3fdc337b	1.720321
98	0x3f87e7ea	1.061765
99	0x3e10640a	0.14100662
100	0x3ec77d56	0.3896281
101	0x3eb39f81	0.3508263
102	0xbf2fbd42	-0.6864816
103	0x3fcbb1b4	1.5913606
104	0xc02416be	-2.563888
105	0x3fdce5a8	1.7257586
106	0xbf8c9cd2	-1.0985358
107	0x3eb0adcd	0.345076
108	0xbfed4831	-1.8537656
109	0xbfa1345a	-1.2594101
110	0x3f8c8d65	1.098065
111	0xbf32550c	-0.6966102
112	0x3c1ea1db	0.009682144
113	0x3f387264	0.72049546
114	0xbf9ebc5d	-1.2401234
115	0xbf3a2fd8	-0.72729254
116	0xbece2986	-0.40266055
117	0xbf9896e4	-1.1921048
118	0x3f612023	0.8793966
119	0x3f55eb53	0.835622
120	0xbf8a1b78	-1.0789633
121	0xbf484151	-0.78224665
122	0x3f93aced	1.1537148
123	0xbff2bad7	-1.8963269
124	0xc002a81c	-2.0415106
125	0x3f88b0bf	1.0678939
126	0x3d87b1b5	0.06625692
127	0x3f6c92d9	0.9241157
128	0xbf70e0f1	-0.94093233
129	0x3f56e7b2	0.8394729
130	0x3e6f3777	0.23361002
131	0xbf2c7d8e	-0.6737908
132	0xbf0f7451	-0.5603686
133	0x3ee243ba	0.44192296
134	0x3f035a86	0.5131
135	0x3c3b6b95	0.011439224
136	0x3dc4a47a	0.09601684
137	0x3f8e9248	1.1138391
138	0xbe1f0d8f	-0.15532516
139	0x3f6e5666	0.93100584
140	0xc0091265	-2.1417477
141	0x3f018837	0.5059847
142	0x3fa7daac	1.3113608
143	0x3f0a521f	0.54031557
144	0xbf121036	-0.57055986
145	0xbf4dc9fa	-0.80386317
146	0xbf93e64a	-1.1554654
147	0xbd593f0f	-0.053038653
148	0xbea47150	-0.321177
149	0xbcc977ec	-0.024593316
150	0x3fec8865	1.8479124
151	0x3de3f05a	0.11129828
152	0xbfad6bff	-1.3548583
153	0xbe870b12	-0.26375633
154	0xc03ed79c	-2.9819098
155	0xc0002c35	-2.0026982
156	0x3fab6d12	1.3392661
157	0x3e8cb9c9	0.27485493
158	0x3ea2c54d	0.31791154
159	0x3fc17404	1.511353
160	0xbcfdd14c	-0.03098359
161	0x3f7bbe47	0.98337215
162	0xbeecba70	-0.4623599
163	0x3f28159b	0.6565797
164	0xbe22d874	-0.15902883
165	0xbf8054c0	-1.0025864
166	0xbfd8b0f9	-1.6929008
167	0xbeb5f80f	-0.35540816
168	0xbeccf2b2	-0.40028912
169	0xc001ae25	-2.026254
170	0xbf367453	-0.71271247
171	0xbeb9cefc	-0.3629073
172	0x3ed61eb3	0.41820297
173	0xbe5eed8c	-0.21770304
174	0xbf4af868	-0.7928529
175	0x3f587849	0.8455854
176	0x3f550a01	0.8321839
177	0xbe797147	-0.24359618
178	0xbf85d1c8	-1.0454645
179	0x3f5e764f	0.86899275
180	0x3f10afe9	0.5651842
181	0x3fc25c01	1.5184327
182	0xbed602f3	-0.41799125
183	0xbe1e44df	-0.1545596
184	0xc017e2d8	-2.3732204
185	0x3f75f728	0.96080256
186	0x3ef785f5	0.4834439
187	0x3ecaa5d3	0.3957964
188	0xbfd9931c	-1.6998019
189	0xbe5c26ec	-0.21499223
190	0x3fb71cc0	1.4305649
191	0x3ee1e543	0.44120225
192	0xc00696f4	-2.1029634
193	0xbe141bb2	-0.1446369
194	0x3fcd9c4b	1.6063322
195	0xbe13871a	-0.14407006
196	0xbe24e96c	-0.16104668
197	0xbf64a38a	-0.8931204
198	0x3faf20db	1.3681902
199	0x3e9d056e	0.30668205
200	0xbf184e31	-0.5949431
201	0xbf4b80ac	-0.7949321
202	0x3e7bfa5c	0.24607223
203	0x3f8ef3e1	1.1168176
204	0xbf317a55	-0.6932729
205	0x3f0d8be7	0.552916
206	0x3fb66b16	1.425143
207	0x3f0b92ed	0.54521066
208	0x3f1f98da	0.6234261
209	0xbfe7d19a	-1.811084
210	0x3f4acc0c	0.792176
211	0x3fcab682	1.5836947
212	0xbde26ddf	-0.110561125
213	0x3e3d6390	0.18495011
214	0xbf5ba0a2	-0.8579198
215	0xbe0376f0	-0.1283834
216	0x3d392f3a	0.045211054
217	0xbe702d3b	-0.23454754
218	0xbf82a236	-1.0205753
219	0x3f0c87b0	0.5489454
220	0x3fcbc832	1.592047
221	0x3fafbd2b	1.3729604
222	0x3e9a20cc	0.30103147
223	0x3ecd4db6	0.4009835
224	0x3ef520e4	0.47876656
225	0xbf0b155e	-0.5432948
226	0x3d8b184e	0.06791745
227	0x3f14a6e2	0.5806714
228	0xc0000dc7	-2.000841
229	0x3fd20c28	1.640996
230	0x3f94850e	1.1603105
231	0x3fcfff4a	1.6249783
232	0xbe12cb61	-0.14335395
233	0xbff49f37	-1.9111089
234	0xbe30484d	-0.1721508
235	0xbfaf50f8	-1.3696585
236	0x3ea14de6	0.31504744
237	0xbfa2d50b	-1.2721266
238	0xbfc1b959	-1.5134689
239	0x3c99077c	0.018680327
240	0x3fabb2b8	1.3413916
241	0xbfea2bbf	-1.82946
242	0x3e62ab35	0.22135623
243	0x3f18c455	0.5967458
244	0x3d316383	0.043307792
245	0x3ed4d784	0.41570675
246	0x3eec4e1a	0.46153337
247	0xbead8014	-0.33886778
248	0xbf2962cc	-0.6616638
249	0x3ed2f5a4	0.41203034
250	0xbfc3872d	-1.5275627
251	0x3f1f08b3	0.6212265
252	0xbfa4dae0	-1.2879295
253	0xbf1d3322	-0.6140615
254	0xbe993037	-0.29919598
255	0x3fbfeea5	1.4994704
