main/reinvent_selfies/data/logs/weight_GRU_layer_2_w_ih.npy (npy, 32896 bytes, 1 tensors)

array f4 [16, 512]
000000 80 6e 9f bd 2d 74 1d 3d c1 38 07 be f8 89 0f 3d
       -0.07784748 0.038440872 -0.13205244 0.035043687
000010 5f ff 99 3b cb 42 d7 bc 5d 3b 93 3d 22 c9 23 bd
       0.004699632 -0.026276967 0.07189057 -0.039986737
000020 ab 2f 7c 3e 29 67 2e 3d 89 8f 2c bd 2c be a9 3d
       0.24627559 0.04257885 -0.042129073 0.082882255
000030 02 a2 e7 3d ca 8d 09 bc ec 37 06 be 81 28 28 bb
       0.113101974 -0.008395622 -0.1310727 -0.0025658908
000040 ff 9d 0f bc e3 fe 28 3e 9b d1 8a bd 8c 8c e9 3d
       -0.008765697 0.16503482 -0.0677826 0.1140376
000050 81 34 81 3d 0e 40 7d bd ef 76 7c bc c5 04 81 3d
       0.063088425 -0.061828665 -0.015409215 0.06299738
000060 ee c4 33 3d 90 b0 41 3e e8 ef 59 3d e1 76 12 be
       0.04388898 0.1891501 0.053207308 -0.14303161
000070 ab b8 c5 bd 71 86 65 3d 2d 96 42 be 6e 0f 60 3d
       -0.09654363 0.056036416 -0.190026 0.054702215
000080 8e 78 c5 3d 47 5e 10 3e cc 99 a9 bd f5 30 0c 3e
       0.096421346 0.14098464 -0.082812876 0.1369055
000090 96 80 86 3b 7d ef 2b be 50 77 e8 bd 50 b6 8c bd
       0.004104684 -0.16790576 -0.11350882 -0.06870711
0000a0 8c 40 08 3e 21 2b ba 3d bb d4 e6 bd d3 22 ee 3c
       0.13305873 0.090902574 -0.11271044 0.02906934
0000b0 93 ad b8 3d 17 3d 61 3d 0e 83 5c 3e 60 c6 31 3d
       0.09017482 0.0549899 0.21534368 0.043402076
0000c0 d4 ae d2 3b e0 f2 3f bd 2c 75 c9 3d d9 e9 41 bd
       0.0064295325 -0.046862483 0.09836802 -0.047342155
0000d0 cd 80 21 be 82 07 bd 3d ae b7 3a 3d c4 aa e5 3d
       -0.1577179 0.092299476 0.045585327 0.112142116
0000e0 d3 b0 6c bb 76 5a 57 3d ea f7 ce bd 27 dc d8 3d
       -0.0036116138 0.052576505 -0.101058796 0.10588866
0000f0 2e db 5b 3b 76 02 8e 3d a3 34 80 3d bd d3 98 bd
       0.003354739 0.06934063 0.0626004 -0.07462261
000100 e7 1d 94 3b f9 88 62 bd a0 63 63 be 92 d7 6f bd
       0.004520166 -0.05530641 -0.22205973 -0.058555193
000110 d6 4e 03 3e d2 d3 36 be 2b 4c ca 3d 5e a7 a7 3d
       0.12823042 -0.1785424 0.09877809 0.0818622
000120 47 57 78 bd 11 c1 20 be c9 da c3 3d d5 fa 15 3e
       -0.06063011 -0.15698649 0.09563214 0.14646466
000130 d9 32 14 bd 80 73 20 be 54 ed ce bd 9a c4 90 bd
       -0.036181305 -0.1566906 -0.101038605 -0.07068749
000140 83 4b e4 bc f2 2e 0d bd 03 5a 11 bd 70 9c 42 3d
       -0.027868038 -0.0344686 -0.035486232 0.04751247
000150 52 68 dc bb 6b 4b d4 bd 0e 4a 03 be 7c f0 fb 3a
       -0.006726303 -0.10365947 -0.12821218 0.001922145
000160 82 33 7c bc 91 a1 32 3e d4 60 82 3e e1 bf a1 3b
       -0.01539314 0.17444445 0.254645 0.004936204
000170 51 4a 8b 3d ee fb 2f be 99 13 87 3d 53 5d 1c 3d
       0.06801284 -0.17185947 0.06595535 0.03817494
000180 4e 55 0f 3e 26 96 1c 3e 95 57 b0 3d 0e ef ba 3d
       0.13997385 0.15291652 0.08610455 0.09127627
000190 c7 24 16 be 69 dd ea bb 85 fa d2 3d b5 88 fa bd
       -0.14662467 -0.0071675074 0.10301689 -0.12233106
0001a0 bf 59 6b bd c6 c1 ca 3d 91 4a fb 3c 27 20 19 be
       -0.057458635 0.099002406 0.030675204 -0.14953671
0001b0 f0 fb 67 3e 4d 5d ae 3b 88 dc 61 bc bf b5 a0 bd
       0.226547 0.005321181 -0.013785489 -0.07847165
0001c0 c7 b0 be 3c f8 69 7d bd 02 86 c4 3d 35 a0 13 3b
       0.023277653 -0.061868638 0.095958725 0.002252591
0001d0 6e a3 9f 3c d8 72 e2 bd 5d 07 87 bd 2d f9 26 3e
       0.019487109 -0.11057061 -0.06593201 0.1630599
0001e0 1f 3e ab 3d 7c 2e 75 bd f4 bb 23 bd 58 cb ac bd
       0.08361458 -0.059858784 -0.039974168 -0.08437222
0001f0 cb 4f 73 39 a7 f3 cf 3d ce 6e 36 3c d7 6e b6 3d
       0.00023204011 0.10153895 0.011134816 0.0890786
000200 d8 57 2d be 1b 6e b5 bd e9 62 ff 3c 23 33 b8 3c
       -0.16928041 -0.088588916 0.031175094 0.022485321
000210 5e 83 9b 3d a8 72 0e bd a5 f1 00 be 7b 90 1b 3e
       0.07593416 -0.034777313 -0.1259218 0.15191834
000220 6f af db 3d 2c 31 83 3c aa c3 2d 3e 4f 9f ed bd
       0.10726821 0.016014658 0.16969171 -0.11602651
000230 96 1b b0 be fe c2 c8 3c ca a8 07 3e b4 6d 08 3d
       -0.34396046 0.024507042 0.13247982 0.033307746
000240 ef f6 51 3e e1 87 92 3d af 6b 8b bd cc 60 d4 bd
       0.20504354 0.07154823 -0.068076484 -0.10370025
000250 9d 18 5b bd 3f 56 7e bd b2 67 30 3e 07 70 ad bb
       -0.05349027 -0.06209397 0.17227057 -0.0052928957
000260 4b 71 b4 bb aa 95 48 be 7e 09 50 bd 16 7c 4b 3e
       -0.0055066696 -0.19588342 -0.050790302 0.19871554
000270 e3 3a 6c bd 19 af 4b 3e 89 a5 1c bd 63 03 5f 3d
       -0.057673346 0.19891013 -0.038243804 0.05444659
000280 28 ac f4 bd 04 91 23 be 9a 12 30 be df e4 a2 bd
       -0.11946899 -0.15973288 -0.17194596 -0.0795381
000290 4a 6f 2c bd 0e 7d 2b 3c ad 46 5b 3d ae 54 17 3d
       -0.04209832 0.010466827 0.0535342 0.03694599
0002a0 50 e5 37 bc 91 48 d0 3d 15 53 4e bd 6e 90 0a 3d
       -0.011224106 0.10170091 -0.050372202 0.033829145
0002b0 40 38 19 3e af 39 9d 3c f6 d1 42 3d 89 77 e4 3d
       0.14962864 0.019192545 0.047563516 0.11155612
0002c0 1e ab 6e bd cb 1b 25 3d 93 31 80 be 4b 3d f3 bc
       -0.05826866 0.04030971 -0.25037822 -0.029692313
0002d0 3f 90 41 bd 40 a1 86 bd 41 65 28 be 22 b4 7c 3e
       -0.047256704 -0.06573725 -0.16444875 0.2467809
0002e0 aa 6d 57 be 9f 79 40 bd 44 2d 35 bd be 8b 65 bd
       -0.21037927 -0.046990987 -0.04423262 -0.05604147
0002f0 ab 84 6c 3d f7 33 a2 3b 19 e6 c2 bc 75 9f 51 3d
       0.05774371 0.0049500423 -0.02379136 0.05117746
000300 7b a7 4d be c8 ab 5f bd 20 07 84 3d 7b 19 b0 3d
       -0.2008342 -0.054607183 0.064466715 0.0859861
000310 3a fe 9a 3d 15 4c cc bc a5 36 3c 3d 94 a3 89 3e
       0.07568021 -0.024938622 0.04595055 0.26882613
000320 32 ac b4 bd f2 6a b1 3c a5 ea 05 3d 0d 71 15 bd
       -0.08821906 0.02165744 0.032694478 -0.036484767
000330 54 1e d0 be 86 29 23 3d 5c 88 07 3e 70 ed 05 3e
       -0.4064814 0.03983452 0.1323561 0.13078856
000340 f2 b9 fa 3d 53 2d 20 bd a0 6f 45 bc b4 49 01 be
       0.122424975 -0.039105725 -0.012050539 -0.12625772
000350 64 7d 04 bd af ff 9b bd 58 94 78 bc df 29 a4 3e
       -0.032346144 -0.07617127 -0.015172087 0.32063195
000360 6b 29 36 be ff 43 17 3e a9 fc 68 bd 8c a8 ef bd
       -0.17789237 0.14772032 -0.05688158 -0.1170207
000370 8f 83 33 3c 02 0b 44 be 40 cf 99 3d 34 21 3b 3c
       0.010956659 -0.19144824 0.07510233 0.01142149
000380 d2 5b 33 3b e2 c7 07 be cc 4e b7 bd e1 ad 4f 3d
       0.0027367962 -0.13259843 -0.08950576 0.050702933
000390 53 cf 91 3d 78 f6 07 3c 92 1d 87 3d b3 38 ef bc
       0.07119622 0.008298509 0.06597437 -0.029201841
0003a0 2a 35 07 be 71 9a b0 3c 32 bb 73 3c 56 c3 8f 3c
       -0.13203874 0.021558018 0.014876174 0.017549198
0003b0 fa 3c a9 bd 77 87 8e bd 3d 33 8c bd ec 8b a3 bc
       -0.082635835 -0.069594316 -0.068457104 -0.01996418
0003c0 31 89 13 bd c3 98 28 3d 4d 2e 0e be 2b cb e2 bb
       -0.036019508 0.04116131 -0.1388485 -0.006921192
0003d0 71 c2 13 bd 1e 0b 83 bd 68 38 e9 bd ea 34 02 3d
       -0.036074106 -0.06398605 -0.11387712 0.031788744
0003e0 85 f4 de bc a8 78 ca bd bf 6e 96 3b 33 89 e1 bc
       -0.027216205 -0.098862946 0.0045908387 -0.027531242
0003f0 d3 a3 84 3e c7 0d 46 bb e6 52 5c be 74 ff 94 3d
       0.25906238 -0.0030220614 -0.21515998 0.07275286
