main/REINVENT_SELFIES/data/logs/weight_GRU_layer_2_w_hh.npy (npy, 32896 bytes, 1 tensors)

array f4 [16, 512]
00000000: 7bc8 8c3e 1078 6c3d 36a6 3e3e 95d6 7a3e
00000010: 5f19 203d ad84 40bb 4a24 18bc 2b9a 673d
00000020: f074 cdbc fafb d93c 33cf 92bd 0e2c 163e
00000030: c427 ac3c 9cf0 1e3e def9 f8bd 1ee9 92bb
00000040: 4c65 80bd 4c97 9bbd 9e62 883c cb36 20bd
00000050: a1c5 25be dd4f f5bd eb6c 0ebd 4ef1 37be
00000060: efa4 dd3c 3e45 393e b931 8f3d 6cde 4fbd
00000070: 4682 68be f8e5 8e3a d151 edbd 14ed 863d
00000080: d97c 5a3d 0271 09bd 6c83 88bd a12d 77bd
00000090: 1a68 3f3d a523 8b3d 4e9e e63b 2966 a33d
000000a0: 62b1 9e3c c77c d03d c9e1 c1bd 7f20 a9bd
000000b0: 76e5 1c3e 3ae8 b4bd 696d 053e b3c2 433d
000000c0: a69e 2ebd 6e87 f33c a461 293d 812e b63d
000000d0: c7a7 8fbd 1aaa 113d c2c4 0bbd 08f2 c2bc
000000e0: e599 68bc 8e44 503d a9e5 b5bd 44e1 9abd
000000f0: 9065 f4bd be1b 5bbd c379 19bd 6adb a3bd
00000100: d086 bdbd badd 67bd 76b1 2dbe e35d 39bd
00000110: 3c60 33bd 82b4 b0ba 41bf 063e 0ac4 66bd
00000120: 468c af3d 866b 1b3e 7e4f 4ebe b569 21bd
00000130: 6c4d 45bd 0738 f43d 15ec 21be 69d3 623b
00000140: fdc4 5fbb 01cc edbc c4c6 fb3d 713b 843d
00000150: 1ddc 53bc 4cc5 f13b 9674 a5bd 9445 bcbd
00000160: 0ccd 3ebd f624 40be 477c 083d da2a 9dbb
00000170: 97ed 993d f322 88bc 833d 5dbd 1be8 763d
00000180: e548 583d 53e3 383d 4711 22ba 1887 06bd
00000190: 5b37 c2bd 2e67 183e cfa3 833c 78fe 6f3d
000001a0: b672 48be 08e3 dfbd f0ff 283e b94c 23bc
000001b0: 74ff 143e 8135 acbd 443c 54bd 8821 7cbd
000001c0: e17a 68bd 7d97 5fbd 2658 89bd 6d35 783d
000001d0: 33a2 49bd f3f9 85bd 63a6 843d f71f 42be
000001e0: d6d6 99bd febe 383a b72e cebb 9cf9 72bc
000001f0: ee64 b9bd 8e16 ba3d 4c79 debc f3e9 3dbc
00000200: d540 14bc 9841 c0bd 2532 82bd 1c2a 8bbc
00000210: d5b7 f9bb 2759 ec3b aad0 953d 4d0b 6fbd
00000220: 674d 4abe 0847 8a3c e69a 433d d05a 33bd
00000230: 4f06 44bd cd75 093d 6518 8dbd 774d 2b3d
00000240: 4410 233e a0ff 5b3d c4f1 ae3d d209 493d
00000250: 375a 75bc d89b ca3d e860 0dbd 4c1a e43d
00000260: 7ce8 283d 1849 523d 5ad4 26bd dea6 9ebd
00000270: 39c7 023c 9f18 173b 8b15 cf3b af79 853d
00000280: 0adc 073d fc40 45bd ecd3 f4bc 5196 8dbd
00000290: 1561 b33d 5c30 6bbd d712 febc 6c23 a63d
000002a0: 85d9 013d e592 273c 72d3 67bd 6390 783b
000002b0: 46fb c5bd 03b0 4bbe 27ae 0d3e ef3c b3bd
000002c0: 6406 95bc 0a58 a1bd ff4b 2b3d 77f4 463d
000002d0: 5b8a 923d 5ab4 47bd e5df 9a3c 3353 3c3e
000002e0: da14 35bd 2770 dbbd 1ece 42be 0c70 84bd
000002f0: bdb1 cabc 9347 5c3e 1caa bcbc 06f6 b7bd
00000300: a9bd c33d 7ef6 f3bd 9a6a 2e3e d6d9 94bc
00000310: cb68 ed3d c2aa c3bc 7224 3f3d 6e16 bbbd
00000320: 7a3b aebc 5a42 e43d 0bdd c9bd f6df 533b
00000330: 40a1 c03c ca02 76bd 78c5 b33d a365 9dbd
00000340: f37a 4c3e 9916 33bd 5013 933b 23be 10bd
00000350: 0a17 3d3c 29cf fbbc 126c c53c 42e1 17bd
00000360: 7b30 66bb 6834 3abc 8760 f33d 8af9 95bc
00000370: 4d7f 42be 2cac 1abe d6f4 c73c c982 e9bd
00000380: 0aae 25bd a757 38bc f64c 963c fac0 943d
00000390: 185c ac3d f6e1 d53d 52c0 d83d b735 91bc
000003a0: c861 e03d 519b 7ebd 284b 453d 4be8 253e
000003b0: 4fe3 a6bd 7c95 04bd 3868 173e 1b5d dc3d
000003c0: dfa3 5e3c 8dfd 083e 7122 9f3c ec65 4e3e
000003d0: 3658 4a3d 840c 93bd 1c43 97bd 9f16 05bd
000003e0: 46d4 a83b 385e 903d f74b e23c 322a e8bd
000003f0: 1f20 4e3e cda6 253b 5990 0e3d e21e e9bc
0.27496704 0.057731688 0.18618092 0.24495919 0.039086696 -0.0029375956 -0.009285996 0.05654351
-0.025080174 0.02660941 -0.07168426 0.14665243 0.021015055 0.15521473 -0.121570334 -0.004483356
-0.06269321 -0.07597217 0.016648587 -0.039114755 -0.1618867 -0.11978123 -0.03477184 -0.17963144
0.027056186 0.1809282 0.06991906 -0.050749227 -0.22705945 0.0010902276 -0.11587871 0.06588188
0.05334172 -0.03355504 -0.06665692 -0.06034625 0.04673014 0.06793908 0.0070379144 0.0797847
0.019371692 0.101800494 -0.09466893 -0.08258151 0.15321907 -0.08833356 0.13030018 0.0477931
-0.042631768 0.029727664 0.041352883 0.08895589 -0.07014423 0.035562612 -0.03412319 -0.02379705
-0.014196848 0.05084663 -0.08881695 -0.07562497 -0.11933434 -0.053493254 -0.037469637 -0.08000834
-0.09254229 -0.05660794 -0.16962227 -0.045255553 -0.043792948 -0.001348153 0.13158895 -0.0563393
0.08571677 0.15177736 -0.20147511 -0.03940745 -0.04816954 0.11924749 -0.15812714 0.0034610874
-0.0034144514 -0.02902794 0.12293771 0.0645665 -0.012930897 0.007378256 -0.08078878 -0.091929585
-0.046582267 -0.187641 0.033321645 -0.004796368 0.0751602 -0.016618228 -0.05401374 0.060279947
0.052803893 0.04513867 -0.0006182384 -0.03284368 -0.094832145 0.1488311 0.016069321 0.05859229
-0.19575009 -0.10931975 0.16503882 -0.009967023 0.14550573 -0.084086426 -0.051815286 -0.061555415
-0.05675781 -0.05458783 -0.06706266 0.060597826 -0.04922695 -0.06541815 0.06477048 -0.18957506
-0.0751168 0.0007047503 -0.00629219 -0.014830019 -0.09052454 0.09086333 -0.027157448 -0.011591422
-0.00904866 -0.09387511 -0.063572206 -0.016987853 -0.0076207914 0.007212776 0.0731519 -0.058360387
-0.19756089 0.016879573 0.047755145 -0.043787777 -0.04785758 0.03355961 -0.068894185 0.041821923
0.15924174 0.05371058 0.08542207 0.04908163 -0.014975122 0.09893006 -0.034516245 0.11137828
0.04123734 0.05133924 -0.040729858 -0.07746671 0.007982069 0.0023055447 0.006319707 0.0651735
0.03316883 -0.048157677 -0.029886208 -0.06913436 0.08758751 -0.057419166 -0.031014843 0.08112225
0.031701583 0.0102278935 -0.056598134 0.0037927858 -0.09667067 -0.19891362 0.13835965 -0.087518565
-0.018191524 -0.0787812 0.041820522 0.048572984 0.071552955 -0.04875598 0.01890559 0.18391113
-0.04420934 -0.10714751 -0.1902394 -0.06466684 -0.024742955 0.21511678 -0.023030333 -0.08982472
0.09557659 -0.11912249 0.17032853 -0.018170279 0.11592253 -0.023885135 0.046665616 -0.091351375
-0.021268595 0.11145468 -0.09856614 0.0032329536 0.02351439 -0.060061254 0.087778986 -0.07685401
0.19968776 -0.043722723 0.004488386 -0.03533758 0.0115411375 -0.03073843 0.024099384 -0.037080057
-0.0035124111 -0.011365034 0.118836455 -0.018307466 -0.18993874 -0.15104741 0.024408739 -0.114018984
-0.04044918 -0.011251367 0.018347245 0.0726337 0.08416003 0.10443489 0.10583557 -0.017725809
0.1095615 -0.06215984 0.048167378 0.16201894 -0.081488244 -0.032369122 0.1478585 0.10759946
0.013588875 0.13377972 0.019425603 0.20156068 0.04940053 -0.071801215 -0.07385847 -0.032492276
0.005152258 0.07049221 0.027624113 -0.11336173 0.2012944 0.0025276423 0.03480563 -0.028457109
